kdv_uq_cd.pt (torch, 90863 bytes, 15 tensors)

linears.0.weight f4 [80, 6]
00000000: 0dfd c1be acba b23e 918f 843d 00ea f4bd
00000010: f651 10be 14f9 d1bd 7994 f93c 7b82 d03d
00000020: f2a5 963e b1d9 a5be fc94 593c dc5f 4a3d
00000030: b5fb 28be 4a77 053f 3a9b febc fa64 ad3d
00000040: 5674 c93e ce79 82be 1811 29be 5b66 d53d
00000050: 3832 dabd 1f75 833d 1654 d83d c98a 9d3e
00000060: 5e6e 8abe 10b0 d93e bb86 98bd 130f 0bbd
00000070: 2fd8 643e e7fa a93d 381b 2abe e2c1 8cbe
00000080: 13df f2bc bf02 9cbd 9450 8cbe a6a0 68be
00000090: 3d81 12be 9e3b 1b3e 7576 bcbc e0b3 45be
000000a0: 73b3 053d caf1 f33e 5608 1dbd dc4e 373e
000000b0: 0a92 b73d 627f 8cbd a94e 6cbe d4d8 aa3d
000000c0: 0de7 61be f1ca 0a3f 497b 283c 4371 b93d
000000d0: d9e1 803b 5342 55be 7e11 3fbe e8d5 1c3f
000000e0: 5416 b73d 2b02 25be ae0b 05bf 03ad 87be
000000f0: d136 7fbd 7857 c5bd 6eae 3e3e 61a9 953e
00000100: f418 72bd 2b6a 293e f0f8 263e 8ef8 d7be
00000110: e4d8 1f3e e56d 9fbd 4d85 a0be a0b4 15be
00000120: 7111 663e f35c 36bf b790 183c 4fb1 7abd
00000130: c444 e13d 68b8 82be 3bff dbbd 929d e43e
00000140: 9539 1dbc ae33 5b3d bfd3 6f3e e6e0 21be
00000150: 36ce d9be 5531 343e ecdc 95be 3fcc 153d
00000160: f0cf 823d 2c4d 5fbe 1b5f 073e 5381 09bf
00000170: 87aa 18bc 5e4c 1ebe f119 293e 1bdc c7bd
00000180: 78ae 393e 6ed6 13bf 0c91 c33c a3a9 073e
00000190: 45ef 65be f1ab 923e c993 3fbe c91c e63e
000001a0: d854 513c db6c 313e cd07 3f3e 7662 bebe
000001b0: ea15 01be 67dc aa3e 456f 57bd 6f61 0b3d
000001c0: 808d 0b3f 0694 9ebe f9b8 37be a234 b3bd
000001d0: df33 22be 281a c7bd 3cd3 8f3e c956 9f3d
000001e0: 8398 133e be07 133f f02b 263e d742 2b3d
000001f0: f184 fe3e 347e ad3d c6c9 ad3e 0424 aabe
00000200: 4ca2 0c3e 73e8 91be a863 3cbe 93fb 9cbd
00000210: ecb9 a03d 4038 803e c832 d53d c171 a13e
00000220: b643 3a3d db28 cebd 8816 9e3e 43c9 94be
00000230: 9189 2a3e c5c9 6d3d c0fc 15bd 427f 723e
00000240: 4adf 193e 9011 04bf f936 b53d 31fa 56bc
00000250: f04d 17bf 471f 0dbe c2ab 13be 069b 853e
00000260: 5ac3 cfbb 20d7 4b3e c6f3 98be 6484 19be
00000270: 389a 8b3e 611e 2dbf 5eee 7d3d 1c86 14be
00000280: 719e dfbe 2fe8 27bf 3bca 823e 2638 27bf
00000290: a603 983b 9f25 16bd 4031 8abd 40d8 a1be
000002a0: bb50 423d bd43 d6be 4e08 6ebc 07a0 42be
000002b0: ee4b e53c ec99 35be 569b 31be df2e 7e3e
000002c0: 80e0 a2bd c758 0b3e e642 cb3e b31e 68be
000002d0: 6838 3fbe 6af3 d93e b771 1fbd de58 d1bc
000002e0: 9c56 ca3e dda0 413e 9da0 d6bd afe7 ac3e
000002f0: 5b0f 3b3e 30b5 6f3e 5bf1 113d 6862 f73d
00000300: a845 66be a73f 153f 6cce 16bd f8e7 973b
00000310: b488 313e 85c4 993d 8a63 19be d73e cb3e
00000320: 937f 643d 6265 2c3d 1a5d 2f3d a9ae a53d
00000330: d97f 853d bc7f f4be f357 6f3e b41b 8cbb
00000340: 68fb e7bd 9ae1 3a3e 8822 2abd f9cb 083f
00000350: 6d8a e33c 0330 643d d3b9 d23d 2015 01bf
00000360: 8073 6d3d 105d d8be 656f 43bd 7c18 923d
00000370: 6e10 003e a021 b3bb 1058 b9bd 4192 0b3e
00000380: 37a7 62be 9ee1 33be d6c1 f43c 84fb 4bbd
00000390: 0338 81bc a0f3 c2be 1c9e c13c 4eff 763d
000003a0: 5174 55be cb4b 6cbd 9fa4 583c 57b6 f5be
000003b0: 2aea 86bc 63a5 27be c9b5 f33d acfd 28bf
000003c0: 9aa0 5fbe 3af2 133f 26c0 6f3d 240c 393d
000003d0: dba1 8ebe a0a9 b5bc 036a 89be c8ee ac3e
000003e0: 63a6 843d 5138 063e ed50 67bc 24ea 173d
000003f0: 4f9d a1be 9f37 753e 0f49 28bd 673e ba3d
-0.37888375 0.34908044 0.064726956 -0.119586945 -0.14093766 -0.10252586 0.030466305 0.10181137
0.2942348 -0.32392648 0.01328015 0.049407825 -0.16502269 0.52135146 -0.031079877 0.084665254
0.3934657 -0.25483555 -0.16510427 0.104199134 -0.1065411 0.064188235 0.10562913 0.30769947
-0.27037328 0.42517138 -0.07447573 -0.033949923 0.22348092 0.08299809 -0.16611946 -0.2749167
-0.029647386 -0.07617711 -0.27405226 -0.22717533 -0.14307113 0.15159461 -0.023005703 -0.19306898
0.03264184 0.47645408 -0.038338028 0.17901176 0.089634016 -0.06860234 -0.23076881 0.08342138
-0.22060795 0.54215914 0.0102833 0.09054806 0.003933173 -0.20826082 -0.18659016 0.61263895
0.089398056 -0.16114108 -0.51970947 -0.26499185 -0.062308136 -0.09635824 0.18621227 0.29230788
-0.05910583 0.16544406 0.163059 -0.4218182 0.15610081 -0.077846326 -0.313517 -0.14619684
0.22467591 -0.7123558 0.009311846 -0.06120425 0.10999444 -0.25531316 -0.10742041 0.44651467
-0.009596248 0.053516082 0.23420618 -0.15808448 -0.4254014 0.17596944 -0.29270113 0.036571737
0.06387317 -0.21806782 0.13219874 -0.5371296 -0.009318001 -0.1545882 0.16513802 -0.09758779
0.18132961 -0.5774907 0.023872875 0.13248305 -0.22454555 0.28646806 -0.1870872 0.44943836
0.012776576 0.17326681 0.1865532 -0.37184495 -0.12606016 0.3337128 -0.05259635 0.034028467
0.54512787 -0.30972308 -0.17941655 -0.08750273 -0.158401 -0.09721786 0.28090847 0.07780225
0.14413647 0.5743369 0.16227698 0.04181179 0.497108 0.08471337 0.33943003 -0.33230603
0.13733786 -0.28497657 -0.18397391 -0.076651715 0.07847962 0.25042915 0.104100764 0.315321
0.04547473 -0.10066386 0.30876565 -0.290598 0.1665404 0.05805375 -0.036617994 0.23681358
0.15026584 -0.515893 0.08848376 -0.013121174 -0.591033 -0.13781463 -0.14420989 0.26094836
-0.0063404264 0.19906282 -0.29873484 -0.1499191 0.27266097 -0.6762448 0.061994903 -0.14504284
-0.4367557 -0.6558866 0.25544915 -0.6532005 0.004639107 -0.036656972 -0.06747675 -0.31610298
0.04744027 -0.41848555 -0.014528347 -0.19006358 0.027990308 -0.17734498 -0.17344412 0.24822567
-0.07952976 0.13608085 0.39699477 -0.22667961 -0.18673861 0.42568523 -0.038926806 -0.02555507
0.39519203 0.1890902 -0.10479853 0.3377051 0.18267576 0.23408961 0.035630565 0.120793164
-0.22487509 0.5830025 -0.036817953 0.004635807 0.17337304 0.07508186 -0.14979377 0.3969638
0.055785727 0.042088874 0.042813398 0.080899544 0.06518526 -0.47753704 0.23373394 -0.0042757634
-0.11327249 0.18250123 -0.041536838 0.5343624 0.027775967 0.05570985 0.102893494 -0.5042286
0.057971478 -0.422585 -0.047713656 0.07133576 0.12506267 -0.005466655 -0.0905 0.1363001
-0.221341 -0.17566535 0.029877584 -0.04980041 -0.015773779 -0.38076496 0.023634963 0.06030207
-0.20845152 -0.05768947 0.0132228425 -0.47990677 -0.01646908 -0.16371684 0.11899907 -0.6601207
-0.21838608 0.57791483 0.058532856 0.045177594 -0.2785786 -0.02217561 -0.26838693 0.33775926
0.06477048 0.1310742 -0.014118415 0.03708853 -0.3156533 0.23946999 -0.0410853 0.090939336

linears.0.bias f4 [80]
00000000: 4446 24be 32a7 3b3d 7d5d 013c 7e56 a1bb
00000010: 8b6f da3d 306d c3bd ccd1 a0bd e178 0dbd
00000020: 09f4 d13c 4a96 11be 49e3 2abc 0849 00bd
00000030: 0b6e 2dbd b047 39bd 8eb2 3dbd e36a 2d3c
00000040: 966a 74bd 07e6 9cbd 1c74 833e 2efe 47bd
00000050: aa1f 723c f62e 2ebd 7eec 3cbd ca66 b3bc
00000060: 80d6 a8bd 8cca 873d e903 78be b937 dfbc
00000070: e94b 8ebc 2f2d 063e a5ad e63c e4e8 183c
00000080: 07b6 ce3c d585 4dbc cd0d cdbd 3b41 bcbd
00000090: e62c 973c b979 e0bc 69b4 b1bd e714 3bbe
000000a0: 0c68 e1bd 593c 9bbd 7f27 7abc de94 61bc
000000b0: 91b7 4cbd 4a16 01be dca9 a8bc 0bca b2bc
000000c0: 93f3 28bb 474b 463d bc0b a63d 2015 073c
000000d0: 3043 783c ada7 58bd 8cf6 baba 4ccc adbc
000000e0: 7a66 56bd 6a17 3abd 0611 1bbe b1cf 8d3d
000000f0: 53f3 41bd de7e e83b b183 8dbd b7ce 263d
00000100: ffd8 4f3c 8b4a 093d 1240 77bd 54d9 51be
00000110: 66a7 f03d bca8 89bd 311a eb3b 3e55 13bd
00000120: 4c07 57bd fdcb 7dbd 7c38 42bc 2a27 d8bc
00000130: 19a5 b9bd b4a1 fb3d 5586 913d 78ed 9c3b
-0.16042429 0.045813747 0.0078958245 -0.0049236408 0.106658064 -0.0954231 -0.078525156 -0.034539107
0.02562906 -0.14217487 -0.010430166 -0.031319648 -0.042341273 -0.045234382 -0.04631286 0.010584566
-0.05967196 -0.07661062 0.25674522 -0.04882639 0.014778057 -0.042525254 -0.046123974 -0.0218996
-0.08244038 0.066304296 -0.24220242 -0.02724825 -0.017370181 0.13103174 0.028158972 0.009332869
0.025233282 -0.012544115 -0.10012398 -0.09192129 0.018454026 -0.027401792 -0.08676989 -0.18269692
-0.110061735 -0.0757987 -0.015268206 -0.013768403 -0.04997975 -0.12606159 -0.020588808 -0.021824857
-0.0025779947 0.048411634 0.08107707 0.008244783 0.0151527375 -0.052894283 -0.001426415 -0.02121558
-0.052343823 -0.045432486 -0.15143213 0.069243796 -0.047351193 0.007095202 -0.06909884 0.040724482
0.012686013 0.033518355 -0.060363837 -0.2049306 0.11750679 -0.06721637 0.007174753 -0.035969965
-0.052497193 -0.061962117 -0.011854287 -0.026385862 -0.09064693 0.12286702 0.071057 0.0047890507

linears.1.weight f4 [80, 80]
00000000: f7c7 c53d 380d 11be 3d0d 843e c104 0ebe
00000010: 2631 863d ec97 1b3e c342 92bd 4930 64bd
00000020: 9a0a 163d 841e c3bd e023 91bd c3b3 2ebe
00000030: f6cf 313c 20ed b83e 4d99 c6bd 1bb8 233c
00000040: 6676 31bb 7405 633e d380 5b3e b205 f1bb
00000050: badb f3bd 94a1 6cbc ad77 2ebd 4382 d63d
00000060: 8dba 45bf c067 2bbd 44d7 1abe f22e 3ebd
00000070: bbc2 4b3e 2d10 5f3e 7f44 07bd 4582 43bd
00000080: 42e8 b93e f87d d63c ec41 4abd 419f 443e
00000090: 4ea9 a83c 896f 1c3d eccf e83b eb05 b7bc
000000a0: c77c a4bd 94d7 1abd 1be3 653d 427f b93b
000000b0: 11e8 c0bd 84c0 213e da22 bcbd 93ce 0cbe
000000c0: 887f 4c3d a904 423e 21f5 0bbd 9edb e5bc
000000d0: 2527 25bd 3632 063d 8342 9abc 4e6e e1be
000000e0: e48f 71bd 50b4 1f3d 762e efbd 4829 a9bc
000000f0: 75ee 8b3b 6311 69bd f48f 2b3e a8e4 f2be
00000100: e36c 62be df5f 33be ee8a 10be 348f 563e
00000110: a622 73bd d211 d23d 7755 943d 19bb 36bd
00000120: a7bd ddbd 2cbe 8d3d eea8 053b 8c2c 533e
00000130: 0548 bebd 6eb2 8abd e279 3bbd c3fa debd
00000140: 4f71 5ebd 8bb7 04be 5403 a33e c478 c13d
00000150: d2a7 a73e aeb8 9dbe 432a 41bc 97b6 d4bc
00000160: 8170 cf3e 68fb 3c3e 9484 b13c 2127 e5bc
00000170: d3a6 8dbe 5fb6 8b3e f8d1 ca3d 95ee acbe
00000180: 148b abbe ae2a b63d 9767 d3bd 9951 2fba
00000190: d187 1b3e 766e 34be fb9d b73d 2753 14bd
000001a0: d54b 1fbe e9a6 183e 5890 24bd 9b2c eabe
000001b0: 887f a63d 2fd3 d23e 2179 443e 4642 9fbd
000001c0: df0d 9b3e 0e1a 8dbd 981b 473e 3feb 5b3e
000001d0: 1600 24bc 8bb7 63bd 8cf5 87bd 5741 6dbc
000001e0: ce0b c23d d9ca 353d a8a3 553e e817 a83d
000001f0: 6bc5 603d da66 27bd 64e2 6c3e f23d d8bd
00000200: f96c a53e 997d 213c 4d72 dcbd b6aa 22be
00000210: 3e3d abbd 19e1 f43e ea71 81bd b844 51be
00000220: 2d63 813e ec68 38be 36de 2abd e3ee 2dbe
00000230: 9bc7 e83d 061e 53be 0608 3ebe 1f8a ba3e
00000240: 16ac 793b 8da1 ba3d b428 9fbb 2262 08be
00000250: 4f3e 79be 12e2 1abd 8dcf d6be 23a7 933d
00000260: cba1 64be 121c 6c3e 2930 2a3c 08e6 82bb
00000270: 8150 a3be 7566 093e 346f b93c bfe9 0cbe
00000280: 4ebf 2a3e fe1c 2c3d 364f 72be 5a51 013e
00000290: 8bad 883d 6c21 7f3e ae39 4abe bdc7 14be
000002a0: 4eaa 9fbd 33dd 67bd 7934 b5bd 38d9 abbc
000002b0: dbd7 a0ba 43a0 26be 1c91 403c 4c6f 863e
000002c0: 3051 09bd e38e 0c3e 1d65 8d3e bc74 8d3c
000002d0: c7b1 4cbe 4b35 4f3e c498 7d3b 313d fb3c
000002e0: 1b26 763e cbf0 e4bb 0bf7 4c3e f422 ddbd
000002f0: 29dc 8b3e fe2f 513e 5f01 043e 2d1e 3b3c
00000300: a568 433d 69d4 b93d 1ce6 4a3e e867 623e
00000310: 932b 02bd 4e47 87bd e7b5 1f3d 2789 003e
00000320: e8af 333e f12f ba3d b249 cc3d 448a cf3d
00000330: 1ed1 f83c 1cd3 9fbd 2b22 ce3c 7550 e63d
00000340: c7eb 913b 629e 403e 4497 f3bb ee29 d6bc
00000350: 0d12 e83d 3f7e e13d 4add 23be 9992 083e
00000360: 3171 49bd 2e17 503d 3de2 2bbe aed4 7ebe
00000370: 5a9d c9bc ac0e 3ebc 3eb9 393d 2b70 50bd
00000380: ee1c c7bc 557f d33e f7ee d83d 37b5 19bd
00000390: b64f 55be e7be 4d3b 2a96 aebd 9968 893d
000003a0: c944 40bd d094 adbd 0976 063e e065 6f3d
000003b0: e604 053d 63b8 8c3c bd94 cc3a 4fa6 c7bd
000003c0: b4a5 a8b9 c7b9 323d 27a0 0e3f ad61 f8bd
000003d0: 1606 d63d 492d b4be 91ad 423e 7ffd 203e
000003e0: c200 d3bc 3680 14bf b402 0cbe c8e1 4a3c
000003f0: db45 ef3d 920a 9e3e 3aea f53c f723 1e3f
0.09657281 -0.14165199 0.2579135 -0.13869001 0.06552343 0.15194672 -0.0714164 -0.05571011
0.036631204 -0.09527305 -0.07086921 -0.17060761 0.010852804 0.36118412 -0.096972086 0.009992625
-0.0027078628 0.22170049 0.21435861 -0.0073554153 -0.11907144 -0.01444282 -0.0425946 0.10474064
-0.7723778 -0.04184699 -0.1512118 -0.04643149 0.19898503 0.21783514 -0.033024307 -0.047731657
0.3631001 0.026183113 -0.049379274 0.19201376 0.020588543 0.038192306 0.0071048643 -0.02234169
-0.08031612 -0.037803248 0.056124788 0.0056609223 -0.09419263 0.15796095 -0.09186335 -0.13750677
0.04992631 0.1894709 -0.03416932 -0.028058823 -0.040320534 0.03276273 -0.018830543 -0.44029468
-0.058975115 0.03899032 -0.116787836 -0.020649567 0.0042703697 -0.056901347 0.16754133 -0.47440076
-0.2211185 -0.1751704 -0.14115497 0.20953065 -0.059359215 0.10257305 0.072428636 -0.044612024
-0.10827189 0.06921038 0.002039488 0.20622462 -0.092910804 -0.06772314 -0.045770533 -0.10887673
-0.05430728 -0.12960641 0.31838477 0.09446862 0.32745224 -0.30804962 -0.011789861 -0.025965972
0.4051552 0.18455279 0.021669663 -0.02797276 -0.2766634 0.27287576 0.099033296 -0.33775774
-0.33504546 0.08894859 -0.103224926 -0.0006687879 0.15188529 -0.17620263 0.08965679 -0.036212113
-0.15556271 0.14907421 -0.04017672 -0.45737156 0.081297934 0.41176745 0.19186832 -0.077763125
0.3028402 -0.06889735 0.1944412 0.21476458 -0.010009786 -0.055594962 -0.06638631 -0.01448091
0.09474908 0.044382904 0.20863211 0.08207685 0.054875772 -0.04086957 0.23133236 -0.1055869
0.32309702 0.009856605 -0.10763989 -0.15885434 -0.083612904 0.47827986 -0.063205555 -0.2043637
0.25270978 -0.18008775 -0.041715823 -0.1698566 0.11366197 -0.20616922 -0.18557748 0.36433503
0.0038096956 0.091128446 -0.004857147 -0.13318685 -0.24340175 -0.037813254 -0.41955224 0.07209613
-0.22327344 0.23057583 0.010387459 -0.003994707 -0.31897357 0.1341799 0.022636034 -0.13761042
0.1667454 0.042019837 -0.23663029 0.1262869 0.06673726 0.24915093 -0.19748566 -0.14529319
-0.07796155 -0.056607436 -0.08847899 -0.020977601 -0.0012271361 -0.16272072 0.011753347 0.26256788
-0.033524692 0.13726382 0.27616206 0.017267577 -0.19989692 0.20235173 0.0038695792 0.030668827
0.24037974 -0.0069867126 0.20016114 -0.107976824 0.27316406 0.20428464 0.12891148 0.011420769
0.04770722 0.09073717 0.19814342 0.2210995 -0.031779837 -0.06605397 0.038991835 0.1255232
0.17547572 0.09091175 0.09974994 0.10133794 0.030373152 -0.07803938 0.025162777 0.11245815
0.0044531557 0.18810418 -0.0074338038 -0.02614304 0.11331568 0.11010408 -0.16002384 0.13337173
-0.049180213 0.050803356 -0.16785522 -0.24885818 -0.024611164 -0.011600178 0.045342676 -0.05088822
-0.024305787 0.41308084 0.10592454 -0.037526336 -0.20831189 0.0031394304 -0.08524735 0.067094035
-0.0469406 -0.08475649 0.13130964 0.058446765 0.032475375 0.017177766 0.0015608292 -0.09748518
-0.00032166915 0.043634202 0.55713123 -0.12128005 0.104503796 -0.351908 0.19011523 0.15721701
-0.025757197 -0.58008134 -0.13672906 0.012382932 0.11683246 0.3086744 0.030018914 0.6177363

linears.1.bias f4 [80]
00000000: 63e3 923c a9c3 d0bc 4b33 b73c b2a6 303c
00000010: ffc3 1dbb 2067 72bc 8eed 03bd 71d9 ac3c
00000020: 607c 713d ff1b bebc d8f1 6a3c c668 a03b
00000030: a076 643c d926 29bc 2415 d6bc 275b b2bb
00000040: 8a14 9a3c 0a75 42bb 25dc cdba cd62 143c
00000050: 3a41 8a3b 34fd 4a3c 222d b8bc c3fa 063d
00000060: a0b6 313d d015 063c 4d96 80bc 58fb 91bb
00000070: 27d2 06bc a862 53bd 9e31 1e3c 69ec 51bc
00000080: 56ba 343d 0530 12bc d03f 5b3d 785c 35ba
00000090: e28a 52bd 1cbb 80ba ec44 d83b 39fa 56bc
000000a0: 08cd 393c 0167 16bc 645f ff3c b413 94bc
000000b0: 04a9 1cbc e5a8 2bbc 792e 093d 208e 25bd
000000c0: c002 02be 4b73 04bd c9a3 82ba 1769 87bc
000000d0: ac34 85bc c47f 42bd bc6a ee3b 7507 133c
000000e0: 5dab 4fbd 3ae0 0a3b 3947 2fbc 4f60 243d
000000f0: b8ee 2fbc 0919 833d 1f24 7abb 8939 0ebd
00000100: 8ffa 023d f6cf 07bd 7d69 93bc 4d18 a7bc
00000110: ba32 a9bc 4c75 c33b c953 08bc d947 2c3c
00000120: 6232 073c f0b4 d23c 8a87 97bc f8cc 3f3c
00000130: 5bb7 e3bc 2d3a f0bb 4589 f13c bbd1 a4bc
0.017930692 -0.025483923 0.022363326 0.010781931 -0.0024073122 -0.014795095 -0.03220897 0.021099778
0.058956504 -0.023206709 0.014339887 0.0048953025 0.013944298 -0.010324203 -0.026133128 -0.005442995
0.018808622 -0.0029671811 -0.0015705867 0.009056759 0.0042192014 0.01238947 -0.022482459 0.03295399
0.043387055 0.008183911 -0.015696669 -0.0044550113 -0.008228815 -0.051607758 0.009655384 -0.012812712
0.044123016 -0.008922582 0.053527653 -0.0006918381 -0.05140198 -0.0009821388 0.006600013 -0.013121181
0.011340387 -0.0091798315 0.031173415 -0.018075801 -0.009561781 -0.010477279 0.033491585 -0.040418744
-0.12696362 -0.032336514 -0.0009967025 -0.016529603 -0.016260467 -0.047485128 0.0072759073 0.008973946
-0.050700534 0.0021190778 -0.010698133 0.04013091 -0.010738067 0.064012595 -0.0038168503 -0.03472284
0.031977233 -0.03315731 -0.017994637 -0.02039733 -0.020654071 0.0059649106 -0.008320757 0.010515177
0.008251758 0.025721043 -0.018497247 0.011706583 -0.027797392 -0.007331154 0.0294844 -0.020119539

linears.2.weight f4 [1, 80]
00000000: e3b4 533e 9b16 3abf 388a e5bc 0306 4cbe
00000010: da0d 163e db3f 0dbf 18a9 00bf 48d9 a43e
00000020: 4707 053f e1ba 623a 95d2 c23e 95ee ad3e
00000030: d651 5b3d 115d 11bf 2715 9bbe 4e45 4bbe
00000040: 2de1 de3e e377 04bf ec38 66be 6cf1 033f
00000050: 7c37 f7bd 6b3e 8e3e 10d1 64bd 9c83 893d
00000060: bf31 9b3e d7c8 9bbc 4906 47be 789c 9dbc
00000070: c957 d9be fe48 8fbe 005b c5bc 0fe6 0cbf
00000080: 4d4b 8e3e 4549 eb3e a283 b03e a712 a83e
00000090: 2a11 a6be c98f 993e 627e 7a3e a2fd a43e
000000a0: 9a8d e63e 85e2 99bb 38d0 d23e 2b99 b83e
000000b0: 9a13 9abe ed3f c6be 2e7b 493e a48d 80be
000000c0: c126 243e a166 c2be 401b c43e e84a 23be
000000d0: 6b6c 73be 3b5a 4cbe f1d2 9e3e 202b 883e
000000e0: d751 d2be f11b abb8 119d 02be 07ea d93e
000000f0: 7feb b2be f089 373e e2e7 603c cc5f 46be
00000100: 39af 873e 657a 9dbe a108 a7be 0828 56be
00000110: 0f66 95be 552f 12be c641 2f3e ef49 733e
00000120: e144 44be 1bb3 033f d5ac cbbc 489f ef3e
00000130: b9da 60be 8ec0 c0b6 271c 1a3f b896 2d3e
0.20674472 -0.72690743 -0.02802001 -0.19924168 0.14653721 -0.5517556 -0.50258017 0.32197022
0.5196423 0.0008649063 0.38051286 0.33971086 0.05354484 -0.56782633 -0.30289575 -0.19850656
0.4353117 -0.5174543 -0.22482651 0.51540256 -0.1207113 0.27781996 -0.05586344 0.067145556
0.3031139 -0.019016666 -0.19435991 -0.01923965 -0.42449787 -0.27985376 -0.024091244 -0.5503854
0.27791825 0.45954338 0.34475428 0.3282673 -0.3243497 0.29992512 0.24462274 0.32224756
0.45029908 -0.0046961927 0.41174483 0.36054358 -0.3009308 -0.38720647 0.19675896 -0.25108063
0.16030408 -0.37968925 0.3830204 -0.15946543 -0.23771827 -0.19956295 0.3102031 0.26595402
-0.41078064 -8.15912e-05 -0.12755229 0.4256136 -0.34945294 0.17923713 0.01372716 -0.19372481
0.26500872 -0.30757442 -0.3262377 -0.20913708 -0.29179427 -0.14275868 0.17114934 0.23758672
-0.191669 0.5144517 -0.024862686 0.4680121 -0.21958436 -5.744462e-06 0.6019921 0.16952026

exp_avg f4 [80, 6]
00000000: 2452 afb9 bf60 d537 2a4d c6bb 0000 0000
00000010: 9e28 2eba 3fad 2dba 75b8 e936 6130 0d37
00000020: 59d3 cbb9 0000 0000 697f 33b8 7325 34b8
00000030: 04c9 7abb ef62 8b3a d711 aa3d 0000 0000
00000040: a138 153c 7133 163c 3dba 55ba 1a52 9938
00000050: a662 d83b 0000 0000 66d5 3e3a 030e 403a
00000060: 64d8 1cbb 76d4 183a b3eb c83c 0000 0000
00000070: 0a79 303b dcf8 313b 54a1 413b 98fd 083a
00000080: 3a94 aebc 0000 0000 f8cf 19bb e428 1abb
00000090: 45c2 21ba 9d5b 6d39 2711 00bc 0000 0000
000000a0: a050 65ba ea73 61ba dc7c bcb9 c69f 9239
000000b0: aa6a 8cbc 0000 0000 6412 f7ba 2e05 f8ba
000000c0: f3fb 43bb 8cba b33a dd3d d03b 0000 0000
000000d0: 8685 353a 7c4b 393a be82 deba d42f 2e3a
000000e0: 8c66 cdbb 0000 0000 550b 2bba 4d68 37ba
000000f0: 2494 58b9 52f1 21b8 790a 22bb 0000 0000
00000100: 8c5d 8fb9 abe9 8fb9 6d3f e439 b920 36b8
00000110: e4ba f3bb 0000 0000 9c04 59ba 072d 57ba
00000120: 3b86 993b 07b2 abba 07a1 3d3b 0000 0000
00000130: 6307 9f39 89b8 a639 5735 6abb 26ca 893a
00000140: 4d6e c33c 0000 0000 c5a5 293b 833f 2c3b
00000150: 4152 f3b9 0d58 f6b8 b1b9 053b 0000 0000
00000160: 79b4 6a39 ddc6 6a39 2af4 8f3b 1c30 b3ba
00000170: 1d57 b63c 0000 0000 8a7f 1e3b 592f 213b
00000180: ceda 643b 6336 86ba 61d4 0cbd 0000 0000
00000190: f80c 77bb 3253 78bb 436e 21bb dd12 2e3a
000001a0: 5edd 113d 0000 0000 3543 803b 36ac 803b
000001b0: 5582 8ab9 4a37 8138 9efa 3e3d 0000 0000
000001c0: 8d8a a33b a9cd a83b 9609 453a f4d4 6237
000001d0: e8cb 82bb 0000 0000 b6b9 e7b9 165d e5b9
000001e0: f7d6 d3b8 7716 ab38 ec82 dfb9 0000 0000
000001f0: 4e48 4cb8 f04b 47b8 c1be 5f3b 07e5 193a
00000200: 3d2d d9bc 0000 0000 138d 3fbb 080b 3fbb
00000210: 5ad6 dbb9 1198 d3b8 8d8d c13b 0000 0000
00000220: ef5b 2a3a a414 2b3a 4e92 723a f6d6 4c39
00000230: 888e b8bb 0000 0000 21dd 22ba f56d 21ba
00000240: 43ae 333b e66f 05ba f2b6 75bd 0000 0000
00000250: 99e1 d1bb d2fc d8bb 8384 00ba 8c06 cd39
00000260: c60e 42bc 0000 0000 74d0 a7ba 3fe5 aaba
00000270: 9d3a 013b 5236 25ba 96ed 5d3c 0000 0000
00000280: 5317 c53a e3a7 c53a 9bb0 5b3b ee83 a0ba
00000290: 1075 953c 0000 0000 fed1 033b 10fb 033b
000002a0: f553 3c3b b1cc 73ba 8ed5 383c 0000 0000
000002b0: d659 a13a c38b a23a 4ffa a7ba ee0f 4139
000002c0: a9d6 683c 0000 0000 c2e1 cb3a 5022 ce3a
000002d0: b41f 4bbb 43eb 933a 0bfe f83a 0000 0000
000002e0: b3b9 4039 eda8 5c39 2e4d 8f37 d95f 4136
000002f0: 72aa 04bb 0000 0000 4c3e 6cb9 9d51 6ab9
00000300: 9442 70bb 645b a03a c697 053d 0000 0000
00000310: e3ff 673b 1b24 6c3b 0b48 32ba b3f7 1939
00000320: 2d8b 8bbc 0000 0000 ded1 f5ba 1db5 f6ba
00000330: 0729 1bb8 13f6 97b7 6747 32ba 0000 0000
00000340: 8da9 9db8 962f 9db8 75e3 c3ba b77a 073a
00000350: 7dd2 353b 0000 0000 e121 8c39 aaa6 9f39
00000360: 7ad2 c63a cd9a 0bba 1284 823c 0000 0000
00000370: 8b2a e73a dba7 e63a d821 ceb7 57ad a5b6
00000380: 98ed 243a 0000 0000 7d76 9238 c93d 9238
00000390: 661e c93a 338f 0eba ab4b c1ba 0000 0000
000003a0: f59d 2fb9 edbd 24b9 b9c1 56b9 2d74 00ba
000003b0: 30da 373c 0000 0000 8593 a23a d3bb a13a
000003c0: 9ff9 6aba d68b 9e39 9121 9dbc 0000 0000
000003d0: cdc3 08bb 1f18 0abb 4b50 faba a588 90b7
000003e0: 2f49 debc 0000 0000 65e0 43bb 8c87 44bb
000003f0: 9c9b 533a e15b 773a 3bd5 8cbc 0000 0000
-0.000334398 2.543663e-05 -0.006051679 0.0 -0.00066436257 -0.0006625242 6.9654147e-06 8.415519e-06
-0.00038876644 0.0 -4.2795586e-05 -4.295022e-05 -0.0038266787 0.0010634343 0.08304184 0.0
0.00910774 0.009167538 -0.0008153057 7.310901e-05 0.0066035567 0.0 0.00072797236 0.00073263067
-0.002393269 0.0005829999 0.024526453 0.0 0.0026927614 0.0027156388 0.0029545622 0.00052257767
-0.021310914 0.0 -0.0023469906 -0.0023522908 -0.0006170611 0.0002263621 -0.007816589 0.0
-0.0008747671 -0.00086003414 -0.00035951182 0.0002796633 -0.017140705 0.0 -0.0018850085 -0.0018922442
-0.0029904812 0.0013712212 0.006355031 0.0 0.00069244986 0.0007068438 -0.001697622 0.00066447
-0.006268328 0.0 -0.0006524821 -0.0006996438 -0.00020654552 -3.861014e-05 -0.002472548 0.0
-0.00027344783 -0.00027449182 0.00043534805 -4.3422657e-05 -0.0074380506 0.0 -0.000827858 -0.0008208309
0.004685191 -0.0013099321 0.002893509 0.0 0.00030332347 0.00031799477 -0.003573736 0.0010512515
0.023856306 0.0 0.002588616 0.0026282973 -0.00046409856 -0.00011746595 0.002040487 0.0
0.0002238321 0.00022390061 0.0043931203 -0.0013670954 0.022258336 0.0 0.0024184906 0.0024594872
0.0034920457 -0.0010239597 -0.034382228 0.0 -0.003769694 -0.0037891385 -0.0024632371 0.0006640384
0.035611503 0.0 0.0039142617 0.003926779 -0.00026418516 6.161498e-05 0.046625726 0.0
0.004990882 0.0051514697 0.0007516382 1.3520232e-05 -0.0039915927 0.0 -0.0004419812 -0.00043747638
-0.00010101304 8.1581e-05 -0.0004263142 0.0 -4.870473e-05 -4.751602e-05 0.0034140798 0.00058706146
-0.02651083 0.0 -0.0029228374 -0.0029150862 -0.0004193064 -0.000100895886 0.0059067667 0.0
0.00064986845 0.0006526208 0.00092533685 0.00019535035 -0.0056322254 0.0 -0.00062127603 -0.00061580475
0.00274171 -0.00050902215 -0.059988923 0.0 -0.006405067 -0.0066219354 -0.0004902558 0.00039105525
-0.011844343 0.0 -0.0012803213 -0.0013038291 0.0019718774 -0.0006302345 0.013545414 0.0
0.0015036858 0.0015079941 0.0033522013 -0.0012246349 0.018244296 0.0 0.0020114179 0.0020138659
0.0028736566 -0.0009300216 0.011281384 0.0 0.0012310098 0.0012401271 -0.0012815687 0.00018411849
0.014211335 0.0 0.0015554952 0.0015726779 -0.0030994238 0.0011285323 0.0018996609 0.0
0.00018379725 0.00021043765 1.7082868e-05 2.8815032e-06 -0.0020243195 0.0 -0.00022529921 -0.00022346382
-0.0036660777 0.0012234268 0.032615446 0.0 0.0035400323 0.0036032263 -0.00068008964 0.00014683492
-0.017034138 0.0 -0.0018754562 -0.0018822287 -3.699309e-05 -1.811519e-05 -0.0006800801 0.0
-7.517925e-05 -7.495207e-05 -0.0014945107 0.0005168127 0.002774387 0.0 0.00026728123 0.00030451018
0.0015168928 -0.00053254963 0.015932117 0.0 0.001763658 0.0017597632 -2.4572873e-05 -4.9375626e-06
0.0006291508 0.0 6.983893e-05 6.973331e-05 0.0015344142 -0.00054382085 -0.0014747282 0.0
-0.00016748144 -0.00015711012 -0.00020480798 -0.0004900124 0.011221454 0.0 0.0012403583 0.0012339301
-0.0008963588 0.00030240294 -0.019181045 0.0 -0.002086866 -0.0021071506 -0.0019097415 -1.7229768e-05
-0.027134506 0.0 -0.0029888388 -0.0029988019 0.0008072199 0.0009435993 -0.01719152 0.0

exp_avg_sq f4 [80, 6]
00000000: 31c7 8d37 b9d0 b934 a01c ad3b 0000 0000
00000010: 06fa 8638 381c 8638 d075 e232 3e21 1f32
00000020: 9302 a637 0000 0000 467f 8134 d901 8234
00000030: 53db 553b c6a7 f438 e296 553f 0000 0000
00000040: 663c 253c ddc2 263c 8e9f 0a39 21a6 1535
00000050: fb76 9e3b 0000 0000 fafe 7a38 b96c 7e38
00000060: 1105 883a 0716 1f38 dd7e a63d 0000 0000
00000070: 0aa7 813a 05df 823a ea9d a53a c4d5 2f38
00000080: 73d5 6f3d 0000 0000 7b6b 3a3a 04ec 3a3a
00000090: a966 1d38 9e13 b836 ae92 163c 0000 0000
000000a0: 9cbd f038 917d e738 bf84 ba37 dbd1 0337
000000b0: 14df 153d 0000 0000 7700 eb39 7fef e939
000000c0: d865 cc3a d53b 5439 1f37 083c 0000 0000
000000d0: 6449 d238 c89c d438 63d9 183a d167 4038
000000e0: c446 033b 0000 0000 73bf ba37 4735 d437
000000f0: 908e 8436 2e30 2734 6b05 303a 0000 0000
00000100: b568 0a37 3d9a 0937 13c1 1638 4a50 a234
00000110: e0b8 cb3b 0000 0000 059a a138 1070 a038
00000120: 5e6f 543b 7f72 4239 5a57 383b 0000 0000
00000130: 421a 0638 667a 1238 eb7d 163b 6232 f038
00000140: 4180 8f3d 0000 0000 80fc 593a 9efd 603a
00000150: 90b1 0838 d36c 1436 7b2d 153a 0000 0000
00000160: 3197 e936 e7c1 e736 dc74 433b 2aad 5539
00000170: 0ade 863d 0000 0000 6e83 4c3a 8d00 533a
00000180: 212f 053b 059e e838 beb6 1d3e 0000 0000
00000190: 9835 f33a 8c89 f53a 1a86 863a feb9 4138
000001a0: c14d 263e 0000 0000 2898 003b bbc2 003b
000001b0: 3371 ff38 e251 fa35 cde9 803e 0000 0000
000001c0: a45b 3f3b 2144 4a3b 3e87 9c38 3ade ba34
000001d0: 87ae 1d3b 0000 0000 aa51 f937 3477 f637
000001e0: 1277 b535 ae39 5135 3724 2338 0000 0000
000001f0: 9b6c 0235 8994 0135 b4a6 d93a 9807 3438
00000200: bacf b23d 0000 0000 5786 8b3a 9828 8c3a
00000210: 9d97 8538 3c19 9b35 117a 693b 0000 0000
00000220: a589 3538 103f 3738 870a d838 bbaf 9536
00000230: c79e 6c3b 0000 0000 b602 3838 4517 3738
00000240: 55dd 933a 169d ea37 d19f e03e 0000 0000
00000250: f3f4 a63b 59de b13b 8616 6038 81bb 9637
00000260: 49f1 ac3c 0000 0000 7162 8439 4adb 8839
00000270: 29e6 c639 bed9 2e38 1ee4 be3c 0000 0000
00000280: 2ee3 9439 abc2 9439 0c87 d83a 73d3 2639
00000290: b145 223d 0000 0000 dc49 fd39 2072 fc39
000002a0: 2a85 a73a 0fd4 c538 1ad9 ab3c 0000 0000
000002b0: ae89 8439 13f9 8439 ad28 b039 7482 3e36
000002c0: 1ce7 083d 0000 0000 4d06 d339 4914 d739
000002d0: 2ba0 903a 4072 1039 0e89 0b3b 0000 0000
000002e0: efe6 cc37 b474 d737 62db a635 0eae e731
000002f0: 3c33 f639 0000 0000 f625 c136 dff3 be36
00000300: d4dc 143b c843 2439 4820 0f3e 0000 0000
00000310: b54f da3a b4eb e03a 5579 6c38 1d8b 2836
00000320: 76d5 1f3d 0000 0000 1297 fa39 8a55 fa39
00000330: 62ed 0634 c7bf 1e33 2e8d 6a38 0000 0000
00000340: 9d2a 3435 6c90 3435 4ee1 f539 3d4a 0038
00000350: 68ad b83a 0000 0000 9d1b 6c37 b2d9 8b37
00000360: 2ce9 7b39 4907 0438 a059 d33c 0000 0000
00000370: a916 a639 ba9d a439 e21c 1434 4b9f c931
00000380: 1282 6138 0000 0000 110f 3335 5948 3035
00000390: ef25 a139 c747 0e38 57ec 8a39 0000 0000
000003a0: 5d22 5036 9de4 5a36 406c 8637 27ce df37
000003b0: cbe3 7d3c 0000 0000 22fb 4639 6f4a 4339
000003c0: 6ecc 2c39 5248 4037 a436 5a3d 0000 0000
000003d0: 15cd 273a db81 2c3a e9b2 c239 e9d5 d434
000003e0: 2970 b03d 0000 0000 99c8 893a 92b6 893a
000003f0: 85f0 6c38 e1c7 db38 95e0 043d 0000 0000
1.6901266e-05 3.46108e-07 0.0052829534 0.0 6.4361884e-05 6.394874e-05 2.6363438e-08 9.2625765e-09
1.978994e-05 0.0 2.4120726e-07 2.421573e-07 0.0032631948 0.00011666077 0.83433354 0.0
0.010085201 0.010178295 0.00013220144 5.5748575e-07 0.004835961 0.0 5.984211e-05 6.0659575e-05
0.0010377486 3.792907e-05 0.08129666 0.0 0.00098917 0.0009984678 0.0012635563 4.1922336e-05
0.05855317 0.0 0.0007111353 0.0007130506 3.7527327e-05 5.485911e-06 0.009190245 0.0
0.00011479409 0.00011038327 2.2234743e-05 7.857069e-06 0.036589697 0.0 0.0004482304 0.00044619662
0.0015594317 0.00020240185 0.008313923 0.0 0.000100272504 0.000101381505 0.0005830733 4.5873054e-05
0.0020031193 0.0 2.2262078e-05 2.5297179e-05 3.950503e-06 1.5570615e-07 0.00067146745 0.0
8.24982e-06 8.201748e-06 3.59426e-05 3.023327e-07 0.006217107 0.0 7.7057666e-05 7.650268e-05
0.0032415013 0.00018543935 0.0028128237 0.0 3.1972544e-05 3.4923105e-05 0.0022963237 0.00011453476
0.07006884 0.0 0.00083155185 0.0008582714 3.2590295e-05 2.2117063e-06 0.0005690676 0.0
6.961542e-06 6.9069097e-06 0.0029824292 0.00020377772 0.06585319 0.0 0.0007801567 0.00080490933
0.002032228 0.000110920555 0.15401742 0.0 0.0018555401 0.0018733009 0.0010263354 4.6188004e-05
0.16240598 0.0 0.0019621942 0.0019647318 0.000121804325 1.8650283e-06 0.25178376 0.0
0.002919891 0.0030863362 7.4638505e-05 3.480689e-07 0.0024060325 0.0 2.972114e-05 2.9380994e-05
1.3520205e-06 7.79425e-07 3.8895956e-05 0.0 4.8586816e-07 4.827239e-07 0.0016605468 4.2922416e-05
0.08731027 0.0 0.0010644895 0.001069325 6.3701744e-05 1.1555744e-06 0.0035625736 0.0
4.3281954e-05 4.368933e-05 0.000103016435 4.4610038e-06 0.003610538 0.0 4.3871543e-05 4.365227e-05
0.0011281172 2.7968123e-05 0.4387193 0.0 0.005095118 0.0054281172 5.342674e-05 1.7968707e-05
0.021111147 0.0 0.00025250347 0.00026103324 0.00037936986 4.168762e-05 0.023302134 0.0
0.00028398022 0.000283738 0.0016519739 0.00015909765 0.039617244 0.0 0.0004831095 0.00048150215
0.0012780775 9.433191e-05 0.020977546 0.0 0.0002527958 0.00025362577 0.00033599642 2.838814e-06
0.033423528 0.0 0.0004024975 0.0004102311 0.0011034062 0.00013775472 0.0021291408 0.0
2.4426232e-05 2.5684341e-05 1.2431813e-06 6.7427726e-09 0.0004695895 0.0 5.7562675e-06 5.6908316e-06
0.0022714632 0.00015665509 0.13977158 0.0 0.0016655835 0.0017160089 5.6379784e-05 2.5114925e-06
0.03902193 0.0 0.00047796272 0.00047747447 1.2566082e-07 3.6961662e-08 5.592143e-05 0.0
6.7117236e-07 6.7265387e-07 0.00046897907 3.0586718e-05 0.0014089765 0.0 1.4073125e-05 1.6671464e-05
0.00024024089 3.1478037e-05 0.025799572 0.0 0.0003167887 0.00031398033 1.3794082e-07 5.8679794e-09
5.3765318e-05 0.0 6.670462e-07 6.567039e-07 0.00030736576 3.3922286e-05 0.00026497498 0.0
3.1014417e-06 3.2617602e-06 1.6024453e-05 2.6679669e-05 0.015496205 0.0 0.00018976306 0.00018624378
0.00016479354 1.146093e-05 0.053274766 0.0 0.0006401104 0.0006580629 0.00037135862 3.9643717e-07
0.08615143 0.0 0.0010512053 0.0010506681 5.6490786e-05 0.00010479964 0.03244074 0.0

exp_avg f4 [80]
00000000: a444 30ba cb2e 35b8 422b 173c 9a57 403a
00000010: fb98 323b 5c2e 1bbb 5ead 63ba eea1 f9ba
00000020: 941a 393a aa92 36ba 5d09 90b9 a8a6 58ba
00000030: bd90 a839 a7b6 2d3b c4bc 6d39 e914 223b
00000040: fb5b 7abb 37a8 813b 01c3 a93b eb86 e8b9
00000050: efb0 46b8 1f0b 41bb 990c 2c3a 150d 24ba
00000060: 5868 dabb b27e acba be44 c53a dfd9 043b
00000070: dc4b a43a 71f8 ce3a 0952 5d39 4ada 6bb9
00000080: e67e 6d3b 4a13 f8ba 9578 9eb8 f29c a139
00000090: db07 e83a b39a 9238 1dd1 2bb9 6d6c a33a
000000a0: 35ac 0bbb 5796 45bb 2f5f faba 061b 283a
000000b0: 3890 77b9 e6fd 543a 2fbe 893b b714 10bc
000000c0: e4d7 52b9 f728 c03b 4a2f 0d39 dd6c ceb7
000000d0: 1c10 a43a d10f 1c3b 969c 4e3b b81d f8bb
000000e0: 0157 0bbb bf71 f937 bf49 76b8 2782 afba
000000f0: ed1e b2ba 69b0 0eba 9e56 e1b9 3bea 38bc
00000100: 1b7b a0ba cb6a dcbb 58fe a139 4c80 b2b9
00000110: 9f69 4939 0e00 9fb8 e376 c03b ccd6 9139
00000120: b948 8ebb 31ca acb9 f525 7cba fe6c e7b9
00000130: bc99 8f3a 303d 923a 0b14 3fbb ca2f 40bb
-0.00067240954 -4.3197342e-05 0.009226622 0.00073372724 0.0027251828 -0.0023678755 -0.00086851965 -0.0019045451
0.00070611504 -0.00069646037 -0.00027472797 -0.000826458 0.00032151295 0.0026506574 0.00022672402 0.0024731702
-0.0038201797 0.0039568204 0.005180717 -0.0004435101 -4.737166e-05 -0.0029456092 0.00065631565 -0.0006258053
-0.006665271 -0.0013160317 0.0015050394 0.0020271463 0.0012534815 0.0015790594 0.00021106763 -0.00022492665
0.0036238967 -0.0018926647 -7.556487e-05 0.00030825246 0.0017702536 6.9906375e-05 -0.00016385732 0.0012468226
-0.002131236 -0.0030149424 -0.0019101853 0.0006412718 -0.00023609481 0.0008124992 0.00420358 -0.008794001
-0.00020107586 0.0058642584 0.00013464424 -2.4607807e-05 0.0012517008 0.0023813138 0.0031526438 -0.007571902
-0.0021261575 2.973608e-05 -5.8719652e-05 -0.0013390229 -0.0013589539 -0.0005443157 -0.0004297988 -0.011286314
-0.001224372 -0.006726598 0.00030897814 -0.00034046394 0.000192082 -7.581721e-05 0.0058735474 0.0002781659
-0.0043421653 -0.0003295704 -0.0009618693 -0.0004414096 0.0010955851 0.0011157151 -0.0029156234 -0.002932536

exp_avg_sq f4 [80]
00000000: eec7 8838 422b 8334 a5c3 283c 926a 7a38
00000010: 918d 833a 1a80 3d3a d8f1 ed38 25d6 ec39
00000020: 4b41 d738 7f73 cf37 6a14 0b37 bef7 a038
00000030: 23a7 1138 e6c4 623a 1cbd eb36 0220 553a
00000040: b73a f93a e666 033b c1b7 4b3b e02d f937
00000050: 33e7 0035 e348 8d3a fe79 3838 dbf5 3a38
00000060: 927b b13b b4a5 8839 2ad4 9639 7f37 003a
00000070: 75c8 8739 9557 d839 4e80 dc37 ac87 c236
00000080: 362d e23a 4494 fc39 7a53 3935 4aeb 9137
00000090: 5dfe a639 342e 3235 0589 5b36 639b 4839
000000a0: c36a 2c3a b468 8b3a ecfa d139 1470 3e38
000000b0: 78ed 7837 8d57 cd38 d39b 093b 6b2d 213c
000000c0: 69cb 8836 b5aa 893b 3829 4237 d22d b233
000000d0: 3bd0 1b39 8d82 583a 4727 8e3a cd3a d63b
000000e0: 4002 323a 5a1c 4c37 fb7e c436 8db1 6839
000000f0: c4db 7639 9a4b 2538 87c0 2138 2e9a 6d3c
00000100: 4c9c 1839 9c98 af3b 15ed 0237 3bcb 8437
00000110: a053 f336 6ef6 cb36 2f9e 813b 4af6 0a37
00000120: 7244 113b 75f2 b437 4497 e238 f15b bf37
00000130: 2fb2 f138 6d5f 0939 e055 943a b80c 8d3a
6.522225e-05 2.4432126e-07 0.010300552 5.9703896e-05 0.0010036697 0.00072288665 0.000113460876 0.00045172978
0.00010264161 2.4730105e-05 8.289799e-06 7.67554e-05 3.4726352e-05 0.0008650556 7.025561e-06 0.0008130075
0.0019014691 0.0020050346 0.0031084868 2.9704475e-05 4.8020155e-07 0.0010779168 4.3982633e-05 4.4574826e-05
0.005416342 0.000260634 0.00028768304 0.0004891082 0.0002589856 0.00041263984 2.628579e-05 5.797445e-06
0.0017255906 0.00048175652 6.9039345e-07 1.7394912e-05 0.00031851503 6.63774e-07 3.27133e-06 0.00019131372
0.0006577188 0.0010636062 0.00040050538 4.540391e-05 1.4837242e-05 9.791469e-05 0.002099742 0.009837489
4.076796e-06 0.004201258 1.1572898e-05 8.2971056e-08 0.00014859524 0.00082591997 0.0010845446 0.0065377713
0.00067904964 1.2165949e-05 5.8560377e-06 0.00022191387 0.00023542257 3.9409475e-05 3.8564696e-05 0.014502091
0.00014554075 0.0053587686 7.803804e-06 1.5830263e-05 7.2516996e-06 6.0785596e-06 0.0039556245 8.282785e-06
0.002216604 2.1570575e-05 0.00010804695 2.2811788e-05 0.00011524965 0.00013100887 0.0011317097 0.0010761237

exp_avg f4 [80, 80]
00000000: 7647 5eb9 0057 62ba ef17 d838 2dcb c939
00000010: 13be 2639 c496 033a b75e 62b9 9d3a f9b9
00000020: e8ba 4838 4e78 da38 68b0 57ba 50c4 22ba
00000030: fc99 c238 09b7 5638 4ac3 603a 5178 e6b6
00000040: 7ea7 36b9 752f d438 4962 0db8 2797 283a
00000050: f0ea 53ba e1d4 10ba 2218 0eba f042 4eba
00000060: 165a 9c37 65ce b239 fbe0 163a 66e6 a839
00000070: cb24 6439 39a7 9d39 ff84 80b9 2a4c 58ba
00000080: bea3 db37 b943 fcb9 9246 5dba d870 6f39
00000090: 8586 6339 3f51 5c3a 147f 9938 d5d9 123a
000000a0: 5728 f0b8 4493 e8b9 d227 e139 caff 4e3a
000000b0: 5967 1cba aa00 cab8 5164 1039 5a8f e9b8
000000c0: b9f8 11b8 9d1e c438 a413 013a a6f4 61ba
000000d0: 7fdc 8839 6662 8139 1568 0839 d759 11b8
000000e0: 2b27 4e38 c5b3 2f39 b3d3 0939 1e70 87b9
000000f0: 4d98 23ba 1b0d 59ba a6c3 edb9 c293 4938
00000100: 273d b1b8 9b73 2639 02b1 4a38 53a6 5d3a
00000110: 6e20 cab8 8a42 8cb8 038c 65b7 f66a 523a
00000120: 14c0 acb9 8e30 77b9 d8a1 c4b9 819a 0db9
00000130: 6e1f dc39 7151 313a ef39 8139 0f40 f9b9
00000140: f518 6a3a 7c19 413b 545d 15b8 cc21 a4ba
00000150: 5776 95b9 3cad ecba 1440 593a 8f7a e03a
00000160: 4fed 4439 b4bc 8a38 a789 373b b376 013b
00000170: 353e 4aba fc6d d938 aebe 3ebb ac00 afb9
00000180: 486b 7c39 9dea 83b8 829b 9f39 6c1a 11bb
00000190: cba5 373b a804 e33a 466c fe3a 2d4d 2c3b
000001a0: 1e49 c1b9 e445 82ba 18e3 0ebb d382 bdba
000001b0: 9837 82ba 4587 69ba 790a 8c3a 65e5 393b
000001c0: b269 9339 0cd9 ed3a 4047 3b3b f3ca f6b9
000001d0: b3d8 82ba c06c 3bbb ebef f6b9 6f26 09bb
000001e0: c802 493a 62bc d93a 8795 adba f8b7 2fbb
000001f0: 719b 083b 1c92 fa38 a3d3 50b7 d746 3f3a
00000200: c843 003a 848e 39ba d940 e3ba 6bb9 403b
00000210: f01b 98ba 0d85 cfb9 90bb 3cba b009 1eb9
00000220: fe35 2b39 7737 6fba 9b7a 2fba 3f7c 2d3a
00000230: eb33 013b 3c89 393b def6 de3a 486d 5839
00000240: 5ce7 e939 2122 92b9 7d4c bb38 6d27 3cbb
00000250: 0d39 68b8 e840 fdb7 6f66 b2b9 1ffb 33bb
00000260: 02be 563a d789 923a e0cb a53a 2fe3 183a
00000270: 0c7c d1ba 64ef 0dbb 1f30 59ba 49b1 ce3a
00000280: 34dd 1838 3f38 ef38 860f 94b7 cf3f 44b8
00000290: 1466 99b7 fcb4 77b8 3803 0538 8882 8138
000002a0: 5228 feb6 3cf3 8bb7 ff36 e538 5bbb ad38
000002b0: 9cd3 09b7 67d9 42b7 1772 edb8 b149 b836
000002c0: 3edd e137 4ff1 75b7 371e 0236 bdcc aab8
000002d0: 7c45 dc38 890f 8f38 52f8 8b38 db4d d738
000002e0: 69be 2636 1b71 37b8 cd1c 9cb8 35a7 2ab8
000002f0: f54f c0b7 23de 1fb8 41f7 0238 4b20 e438
00000300: f85b bcb6 ecc4 8238 d510 eb38 4380 23b8
00000310: 023a c3b7 05d6 e8b8 2d7d 95b5 5288 91b8
00000320: 5477 6537 7190 8238 e7c0 51b8 a99d dbb8
00000330: 54c6 aa38 bef0 3d37 c6f6 c2b7 e6f2 6337
00000340: 6bdf 8e35 025d 09b7 00ea 87b8 052f ef38
00000350: 038c 0fb8 df48 1db8 b5af 75b7 09f7 0237
00000360: 22f3 39b7 57ad c2b7 956e b5b7 ba19 1538
00000370: 7dbf a538 40fe e538 4055 7538 aa38 1cb7
00000380: c614 e935 6d34 a8b7 1140 20b7 830d eab8
00000390: b1b9 8537 30eb 0637 397d 9c36 b367 dfb8
000003a0: 118d 3738 7101 b437 d861 5c38 a1d6 9437
000003b0: f528 67b8 1cc2 c1b8 2d2c ffb7 ec99 8938
000003c0: b983 0039 7a3f 4d3a 760d 08b9 3275 cab9
000003d0: 49ea 52b9 4bbc feb9 a7bf 2c39 72b3 e539
000003e0: 7b5c 95b8 75a0 afb8 ed09 433a 6a1d 1a3a
000003f0: f9ae 9db8 5aaf 86b8 c386 4eba e467 8b36
-0.00021198191 -0.000863418 0.000103041406 0.00038489085 0.00015901802 0.0005019719 -0.00021588324 -0.0004753665
4.7857786e-05 0.000104174585 -0.00082278857 -0.00062090624 9.279323e-05 5.119204e-05 0.0008574022 -6.868541e-06
-0.00017419268 0.00010117787 -3.3708555e-05 0.0006431215 -0.00080840196 -0.00055248855 -0.0005420466 -0.0007868251
1.8638599e-05 0.00034104582 0.00057555706 0.00032215117 0.00021757481 0.00030069964 -0.00024513152 -0.00082510954
2.6183083e-05 -0.00048115643 -0.0008440997 0.00022834854 0.0002169852 0.00084044406 7.319279e-05 0.00056019175
-0.00011451606 -0.0004436021 0.00042945013 0.0007896392 -0.0005966328 -9.632234e-05 0.00013770281 -0.00011137007
-3.4802335e-05 9.3517105e-05 0.0004923886 -0.00086195243 0.00026104224 0.0002467811 0.00013008744 -3.4654364e-05
4.9150705e-05 0.0001675627 0.00013144202 -0.0002583274 -0.0006240651 -0.0008279846 -0.00045349932 4.8059745e-05
-8.451408e-05 0.0001587406 4.8325404e-05 0.0008455265 -9.638151e-05 -6.688114e-05 -1.3682063e-05 0.00080268027
-0.00032949506 -0.00023573844 -0.00037504616 -0.00013504365 0.00041985087 0.000676415 0.0002464796 -0.00047540708
0.00089301105 0.0029464653 -3.5611287e-05 -0.0012522279 -0.00028507665 -0.0018056999 0.00082874415 0.0017126369
0.00018780421 6.6155015e-05 0.0028005631 0.0019754588 -0.0007714958 0.000103678525 -0.0029105353 -0.00033379102
0.00024072558 -6.290267e-05 0.00030442706 -0.0022140993 0.0028022404 0.0017320113 0.001941093 0.0026291118
-0.00036866305 -0.0009939042 -0.002180284 -0.0014458544 -0.0009934781 -0.00089084014 0.0010684273 0.002836549
0.00028116774 0.001814635 0.0028576404 -0.00047071985 -0.0009982794 -0.0028598756 -0.0004709953 -0.002092745
0.0007667956 0.0016611929 -0.0013243415 -0.0026812535 0.0020844603 0.00011948144 -1.2447042e-05 0.0007296628
0.00048929127 -0.00070784264 -0.0017338052 0.0029407393 -0.0011605006 -0.00039581247 -0.000719958 -0.00015071663
0.00016327944 -0.00091253914 -0.000669399 0.00066179404 0.0019714783 0.0028310558 0.0017010828 0.00020640076
0.000446136 -0.00027872718 8.931102e-05 -0.0028710023 -5.5366243e-05 -3.0190175e-05 -0.00034027125 -0.0027462912
0.00081917655 0.0011179995 0.001264926 0.0005832193 -0.0015982403 -0.002165758 -0.00082850637 0.0015769388
3.6445635e-05 0.00011406885 -1.7650204e-05 -4.6789468e-05 -1.8286555e-05 -5.9057944e-05 3.171267e-05 6.175513e-05
-7.574484e-06 -1.6683356e-05 0.00010929815 8.2841805e-05 -8.2151055e-06 -1.1613919e-05 -0.000113222915 5.492206e-06
2.6925114e-05 -1.4659322e-05 1.9389097e-06 -8.144367e-05 0.0001050336 6.821665e-05 6.67429e-05 0.000102665006
2.484676e-06 -4.3735938e-05 -7.444024e-05 -4.0686882e-05 -2.2925416e-05 -3.8115435e-05 3.122469e-05 0.00010877902
-5.613543e-06 6.2355626e-05 0.000112088084 -3.898168e-05 -2.3272823e-05 -0.00011102486 -1.1137796e-06 -6.9395304e-05
1.3677247e-05 6.2257874e-05 -5.0009137e-05 -0.000104721 8.143173e-05 1.132133e-05 -2.3241515e-05 1.3586809e-05
1.0644848e-06 -8.187491e-06 -6.4808875e-05 0.00011405166 -3.4224253e-05 -3.7499583e-05 -1.4644048e-05 7.806121e-06
-1.1083468e-05 -2.320732e-05 -2.1628375e-05 3.5548328e-05 7.9034806e-05 0.00010966929 5.8491947e-05 -9.311518e-06
1.7365899e-06 -2.0051573e-05 -9.55166e-06 -0.00011160506 1.5941305e-05 8.041781e-06 4.66374e-06 -0.00010652784
4.376198e-05 2.1458343e-05 5.254321e-05 1.774292e-05 -5.5112836e-05 -9.239113e-05 -3.041894e-05 6.561339e-05
0.00012256102 0.0007829588 -0.00012974985 -0.0003861576 -0.00020114439 -0.00048586944 0.00016474594 0.0004381198
-7.1220995e-05 -8.374538e-05 0.0007440139 0.0005879017 -7.5189346e-05 -6.42228e-05 -0.00078783574 4.1546173e-06

exp_avg_sq f4 [80, 80]
00000000: bd51 ca36 0c34 b738 efe4 a635 348f 9237
00000010: 26e0 4836 38cb ed37 ee96 c636 8695 df37
00000020: eeb2 e434 17da b135 5294 a638 b382 3d38
00000030: 477c b135 19de b434 2448 b238 b730 1733
00000040: da1c 7036 3736 a635 c4ee 4f34 0f24 4638
00000050: 9ebb 9f38 060c 1138 1adf 0e38 d715 9538
00000060: 945f d133 eefe 5f37 d939 2438 d929 5737
00000070: 9fda ba36 9f36 3137 f309 f136 898d a738
00000080: 64bd 2734 c3f0 e737 badf ae38 5d03 c736
00000090: 5648 bd36 1e7c ad38 21c0 5e35 0dcf 1a38
000000a0: f99d eb35 3ce3 c837 9f9f ae37 1742 9938
000000b0: 63b3 3538 3088 9a35 1858 1b36 51ff da35
000000c0: 0a9f 9834 de40 9735 5977 f737 46b6 b638
000000d0: 9790 1137 9148 f936 8c90 1136 3291 3634
000000e0: f352 a134 8b7b 7736 19bc 2336 3db4 0137
000000f0: df27 3c38 84a8 a838 e45b d337 92b0 9e34
00000100: 248e 5d35 334e 4136 888c ba34 9923 ac38
00000110: ff92 9f35 8f04 7f35 da06 a133 23d2 9e38
00000120: 3558 5137 7297 dd36 1ff4 9037 625e 1d36
00000130: 0d35 b037 54fe 6138 fe29 ee36 426b e137
00000140: 781f 2339 c835 bb3a 893a 1035 7a51 8639
00000150: 3f14 5837 1d83 053a 3414 0339 00ae fd39
00000160: 1559 d536 8977 9c35 a280 a93a 831e 293a
00000170: a71e e338 5cab ea35 1908 b63a 47ba a137
00000180: ee89 2237 c798 a135 a1ab 8e37 c03f 4d3a
00000190: 5270 a73a 3441 f839 fc71 1f3a eb02 933a
000001a0: 870c cf37 5824 2739 3d22 513a 3a1e be39
000001b0: f921 2839 af1f 0739 5e2f 4c39 2dbb ad3a
000001c0: dcd2 8237 59d9 103a 1d2b b03a ee4d 1b38
000001d0: 4ba6 2b39 5757 b03a 4dca 2a38 8221 3b3a
000001e0: 7d7f d838 4e52 fa39 22aa 8d39 9349 9b3a
000001f0: b21a 433a 8fcf 4636 671e 5b35 436d c138
00000200: 413a 3d38 600a b038 2936 063a 10ab ba3a
00000210: bd07 7b39 d9a2 eb37 c527 bc38 f729 9d36
00000220: 3471 8f36 44ca 1e39 748e b538 d077 9938
00000230: a013 253a 3f17 ad3a 315a 013a d471 eb36
00000240: 92d4 fa37 b519 5537 9c2f 8635 251f b03a
00000250: 4b3d 5b35 87c3 e735 3cd6 a837 bf8e a33a
00000260: 576c e038 50b9 5439 b136 9139 86c7 7f38
00000270: 8546 e239 e5ae 4b3a 5093 ea38 ace3 d939
00000280: 04ae 4034 0ae8 c835 a420 0f33 4460 8934
00000290: efbc 2733 83a3 cc34 39ec 0534 6ab9 ee34
000002a0: c0a5 2b32 963e 0833 a193 b835 0d4f 5235
000002b0: 52ac 8a32 6438 7f32 4154 c135 069e 8f31
000002c0: 02a1 aa33 071c cf32 55e7 5331 99e3 4635
000002d0: 7029 a935 7ae9 0c35 2bd0 0835 60cc 9e35
000002e0: da2d 3131 eb95 6234 18be 2f35 0f48 6334
000002f0: 98c3 8933 6d0e 3034 b418 0234 952f b735
00000300: 403a d031 a75a f934 9b58 c135 8ca6 2b34
00000310: ede9 9233 5a07 be35 eff1 cb30 23d1 1535
00000320: 564a 0133 bab1 fc34 a03c 9534 9e29 a935
00000330: c3b7 5435 f6d0 8a32 051b 8133 ad92 f232
00000340: 071d 8731 bc05 4e32 b30f 0735 37f7 c835
00000350: 1724 2434 0a9c 2c34 e094 0433 3238 0232
00000360: 7a01 6e32 44e1 a333 f5ba 9033 4d9d 1234
00000370: c385 3f35 46fd b935 8d45 e034 52f1 3732
00000380: 6742 0e31 318f 3c33 d29b 4532 4d3d b935
00000390: 7113 fe32 aec7 7932 834e 9831 e3b8 af35
000003a0: 6254 6134 f713 7b33 7cbe b134 b98d 3233
000003b0: 5465 c134 1997 8235 a39a e633 1bcd 0535
000003c0: 21d7 6036 d67c 9a38 432f 0636 99a9 8e37
000003d0: 0f8f 9c36 a7be de37 2e5f 9336 40ef c437
000003e0: e403 9035 18ae 9835 5fb9 8b38 f173 2438
000003f0: 3f68 cc35 badc 2135 dc0d 9438 47ff a934
6.0295847e-06 8.7358145e-05 1.2434592e-06 1.747124e-05 2.9932794e-06 2.8347233e-05 5.9184304e-06 2.6653299e-05
4.2598498e-07 1.3251e-06 7.943124e-05 4.5182835e-05 1.3223697e-06 3.368921e-07 8.501139e-05 3.5201733e-08
3.577958e-06 1.2383742e-06 1.936524e-07 4.724046e-05 7.616657e-05 3.458189e-05 3.4063218e-05 7.108942e-05
9.7497065e-08 1.3351191e-05 3.915452e-05 1.2824742e-05 5.568683e-06 1.056274e-05 7.183518e-06 7.9895435e-05
1.5621987e-07 2.764946e-05 8.338639e-05 5.9310537e-06 5.64106e-06 8.2724015e-05 8.298103e-07 3.6909292e-05
1.755484e-06 2.3947672e-05 2.0816746e-05 7.307919e-05 4.332083e-05 1.151353e-06 2.3148077e-06 1.6316573e-06
2.8427922e-07 1.1269256e-06 2.950027e-05 8.712387e-05 8.676338e-06 7.429226e-06 2.169082e-06 1.7002893e-07
3.004894e-07 3.687778e-06 2.439838e-06 7.730964e-06 4.4859826e-05 8.042253e-05 2.519595e-05 2.9558265e-07
8.253576e-07 2.880476e-06 3.474745e-07 8.20823e-05 1.1889205e-06 9.5001536e-07 7.498393e-08 7.573168e-05
1.2477908e-05 6.603944e-06 1.7279815e-05 2.344976e-06 2.1005539e-05 5.3881042e-05 7.0978413e-06 2.6872036e-05
0.00015556614 0.0014282996 5.372936e-07 0.00025619176 1.2879317e-05 0.0005093085 0.0001250066 0.0004838556
6.358265e-06 1.1657695e-06 0.0012932012 0.0006451385 0.00010829913 1.7484231e-06 0.0013887911 1.9279438e-05
9.688067e-06 1.2039899e-06 1.700764e-05 0.0007829629 0.0012774563 0.00047350826 0.00060823536 0.001121608
2.4682156e-05 0.000159399 0.0007977819 0.00036262145 0.00016034384 0.00012886406 0.00019472602 0.0013254635
1.5595397e-05 0.00055255514 0.0013440583 3.7027457e-05 0.0001636978 0.0013453764 4.0719566e-05 0.0007138477
0.00010323429 0.00047745038 0.00027020375 0.0011847488 0.00074426376 2.9625114e-06 8.16281e-07 9.223309e-05
4.5115365e-05 8.3942665e-05 0.0005119765 0.0014241654 0.00023940108 2.8090015e-05 8.971946e-05 4.68385e-06
4.2749107e-06 0.00015143404 8.6572865e-05 7.317925e-05 0.0006297175 0.001320578 0.0004934399 7.016797e-06
2.9901308e-05 1.2701775e-05 9.997634e-07 0.0013437016 8.167305e-07 1.7267747e-06 2.0126921e-05 0.0012478455
0.00010701332 0.0002028693 0.00027697303 6.098256e-05 0.0004315862 0.0007769897 0.000111854286 0.00041559094
1.79447e-07 1.4968693e-06 3.332447e-08 2.558828e-07 3.905455e-08 3.8116931e-07 1.2472528e-07 4.446586e-07
9.991197e-09 3.172189e-08 1.3752034e-06 7.834613e-07 1.6143677e-08 1.4855775e-08 1.4404142e-06 4.179813e-09
7.945529e-08 2.4110717e-08 3.0836038e-09 7.4091946e-07 1.2603541e-06 5.249382e-07 5.096687e-07 1.1831398e-06
2.5782954e-09 2.110243e-07 6.5469203e-07 2.1167237e-07 6.415138e-08 1.6396525e-07 1.211618e-07 1.3648411e-06
6.060219e-09 4.6445822e-07 1.4405408e-06 1.5986205e-07 6.841206e-08 1.4158243e-06 1.4838956e-09 5.581116e-07
3.010276e-08 4.706797e-07 2.7797523e-07 1.2603593e-06 7.924356e-07 1.6160339e-08 6.0119454e-08 2.8239208e-08
3.932317e-09 1.1992082e-08 5.0314264e-07 1.497311e-06 1.528682e-07 1.6075515e-07 3.0869046e-08 7.579773e-09
1.3853759e-08 7.6312546e-08 6.73953e-08 1.3654535e-07 7.1347694e-07 1.3857286e-06 4.1773856e-07 1.0706872e-08
2.0701465e-09 4.3902393e-08 1.1502339e-08 1.3801415e-06 2.9578333e-08 1.45391095e-08 4.432708e-09 1.3092325e-06
2.0985456e-07 5.845865e-08 3.3107415e-07 4.157275e-08 3.6022777e-07 9.72973e-07 1.0738338e-07 4.984483e-07
3.3503823e-06 7.366545e-05 1.9995066e-06 1.7006694e-05 4.6658165e-06 2.6553242e-05 4.3920218e-06 2.347643e-05
1.0729968e-06 1.137555e-06 6.6625646e-05 3.9208626e-05 1.5229524e-06 6.0298373e-07 7.0597715e-05 3.1664442e-07
