kdv_save_ux_plot_520.pt (torch, 87023 bytes, 15 tensors)

linears.0.weight f4 [80, 2]
000000 0a 8d 5d 3e 7b ae 28 bf e8 36 51 3d 0e 4f 18 be
       0.21635833 -0.65891236 0.051077753 -0.14873907
000010 77 71 4c 3e 8d eb 23 bf de 83 19 be dd 25 04 3f
       0.19965158 -0.64031297 -0.1499171 0.51620275
000020 b9 b5 ed 3d f6 bf 87 bc 44 7a 54 3d 53 5c 4e 3e
       0.116069265 -0.016571026 0.051874414 0.20152406
000030 54 4d 35 3e df c5 0b bf f4 4d 0d be b2 91 ca 3e
       0.1770528 -0.545988 -0.13799268 0.39564282
000040 6e 12 20 3e 08 90 f3 be c7 6c 4c be b1 41 12 3f
       0.1563203 -0.47570825 -0.1996337 0.5713149
000050 8a aa 8b bd 51 d3 0b 3e d7 16 ca bd d1 63 6b 3e
       -0.06819637 0.1365483 -0.098676376 0.22987296
000060 56 d7 06 3e c4 af d9 be c1 44 09 be cf b5 a1 3e
       0.13168082 -0.4251691 -0.13405134 0.3158402
000070 41 ed e8 bc 63 67 6d be 81 c6 87 bd ef ab a5 bd
       -0.028433444 -0.2318397 -0.066296585 -0.08089434
000080 e9 93 03 3e b5 bf 9d be f2 bf 38 be 9c b4 0d 3f
       0.12849392 -0.30810323 -0.18041971 0.55353713
000090 88 27 fb bd ce ea d6 3e 07 9f 0b 3e f8 d5 4f 3e
       -0.12263399 0.41976017 0.13634883 0.20296466
0000a0 41 b0 24 3e 64 6b e1 be ff dc cc bd 8f 07 d3 3e
       0.1608286 -0.44027245 -0.10003089 0.41216704
0000b0 89 0a 1b be 7e b3 5d be 6a fc 21 3e ac e9 f1 be
       -0.15140738 -0.21650502 0.15818945 -0.4724859
0000c0 3f cb d8 3d de 13 b4 be 8b 84 66 3e 6c 26 26 bf
       0.10585641 -0.35171407 0.22511499 -0.6490238
0000d0 c2 44 fe bd a1 36 90 3e 25 82 0b 3e 5e 39 58 be
       -0.12415458 0.2816668 0.13623865 -0.21115634
0000e0 ee 94 b0 bd ed 6a 89 3e 73 1c 0c be 7f e9 d1 3e
       -0.08622156 0.2683939 -0.13682728 0.40998456
0000f0 e8 81 11 be 0d 13 cf 3e 9c 2e 4e 3d 06 47 8b be
       -0.14209712 0.40444222 0.05033742 -0.27202624
000100 4b 5d c8 3d 7f 59 8d be 91 1e bd bd ef ea 59 3e
       0.09783419 -0.27607343 -0.09234346 0.21281026
000110 5e a9 0a be d4 2b f8 3d 51 bf 2c 3e 64 32 2f 3d
       -0.13541171 0.121177346 0.16869856 0.042772666
000120 c6 9f 0a be ef 66 d8 3e 87 07 fc bd 31 10 ec 3e
       -0.13537511 0.42266032 -0.12306123 0.46106103
000130 ee e8 e7 bd c0 60 ca 3e 91 c4 45 3e d0 cd 1f be
       -0.11323725 0.3952694 0.19313265 -0.15605855
000140 8a c0 36 3e 35 c2 0f bf 27 84 33 3e 5e dc dc be
       0.17846885 -0.5615571 0.17530881 -0.43136877
000150 bd 44 b1 bd 8d b2 90 be c6 87 16 be 58 a8 e6 3e
       -0.08655689 -0.28261223 -0.14700231 0.4505031
000160 25 61 f2 3d d2 9f 7c be a2 27 d3 bd 84 15 24 3e
       0.11834935 -0.24670342 -0.10310294 0.16023833
000170 31 51 56 3e 7c df e8 be 8c 1c 1c 3e e3 46 c6 be
       0.2092941 -0.45483005 0.15245265 -0.38725957
000180 b2 d8 02 3e ad 93 22 be 6f 6f c6 3d 6b 77 74 be
       0.12777975 -0.15876646 0.09689223 -0.2387368
000190 4c d8 25 be 28 69 fa 3e d5 22 02 3e 5c 94 d3 be
       -0.16195792 0.48908353 0.127086 -0.41324127
0001a0 bd 67 8b bd 59 03 87 3e bf bc 41 3e 9b 23 b5 bc
       -0.06806896 0.26369742 0.18919657 -0.022111705
0001b0 f2 b9 ff bd 12 70 8a 3e ae 8f 2b 3e 19 de ed be
       -0.12486638 0.27038628 0.16754028 -0.4645851
0001c0 fc 9d d4 bd 10 e3 66 3d f6 1c 3a be 1f 25 12 3f
       -0.10381696 0.056368887 -0.1817511 0.5708789
0001d0 1f 99 47 3e c7 96 12 bf 70 e8 4d 3e 0a 4f 14 bf
       0.19492005 -0.5726132 0.20108199 -0.57933104
0001e0 7b a0 2a 3e 15 27 03 bf 9d 3c 4e 3e 48 0b 23 bf
       0.16662781 -0.5123151 0.2014031 -0.6368909
0001f0 8d cb 63 3e d6 62 61 be bc 38 35 3e bc 69 2c 3d
       0.22245617 -0.22010359 0.17697424 0.042093024
000200 af fe 2d be 9d 54 ec 3e fa 91 35 be 6e 77 02 3f
       -0.16991685 0.46158305 -0.17731467 0.50963485
000210 1b cc 49 be 80 54 03 3f 9b f3 e6 bd af 5f 9a 3e
       -0.19706766 0.5130081 -0.11276933 0.30151126
000220 b6 ad 18 be 81 ed e9 3e f3 6b 18 be af eb e5 3e
       -0.14910015 0.45689014 -0.1488493 0.44906375
000230 70 19 f2 bd 98 58 c4 3e d5 08 27 be 86 fa b5 3e
       -0.11821258 0.38348842 -0.16311963 0.35542697
000240 ff 14 3d 3e a5 e1 61 3d ee 63 4a 3e ff 7c 1d bf
       0.1846504 0.055146832 0.19764683 -0.61518854
000250 1f de d1 3d c7 9d 20 be 09 b4 ff bd 7f 19 e5 3e
       0.10247444 -0.15685187 -0.12485511 0.44746014
000260 c7 c9 98 3a e5 59 1c be dd 79 0a 3e 91 90 d8 be
       0.0011656814 -0.15268667 0.1352305 -0.42297795
000270 0b e8 63 ba 5c 75 cf bc 99 8e 65 3e 38 d5 2d bf
       -0.000869394 -0.025324516 0.22417678 -0.6790347

linears.0.bias f4 [80]
000000 13 79 c3 bd bb fb ac 3d 51 f5 43 3e a0 56 62 be
       -0.095445774 0.08446451 0.1913655 -0.22103357
000010 16 02 0a 3e 02 f0 0b 3e 6f ec 13 3e 6c ef 33 be
       0.13477358 0.13665774 0.14445661 -0.17571801
000020 1d 89 8d bd f7 8d d1 3e dc 56 c4 3d 85 7f 1c be
       -0.06910918 0.40928623 0.095868796 -0.1528302
000030 96 4f 70 3d d6 dc 89 3e f5 b6 c6 bd 14 50 df 3c
       0.05866965 0.26926297 -0.09702865 0.027259864
000040 64 d4 62 3e a6 bc f2 bd 27 a9 84 bd bd 88 51 3d
       0.22151333 -0.11852388 -0.06477576 0.051155794
000050 03 76 9c be 1e f0 d8 3d 3e 5a ed 3d dd fc 8e bd
       -0.30558786 0.10592674 0.11589478 -0.069818236
000060 77 29 48 3d 15 e5 04 bf 5e 62 16 be 11 39 80 be
       0.04886767 -0.5191205 -0.14685962 -0.25043538
000070 2d ec c2 3d 5b d5 84 3d 21 14 f4 bd 70 f2 36 be
       0.09517703 0.06486007 -0.11917902 -0.1786592
000080 54 12 f0 bd 3d 61 93 be 79 92 90 bd 78 77 d7 bd
       -0.11722246 -0.28785124 -0.070591874 -0.10520834
000090 3d de 84 bd a1 ec 2a bd 14 47 2c bd 21 a6 ac bc
       -0.06487701 -0.041729573 -0.042059973 -0.02107531
0000a0 19 b7 96 3d ba 3e 68 be 32 f2 f1 3d 2a 0a 0d be
       0.07359142 -0.22680178 0.11813773 -0.13773409
0000b0 1a aa 2e be de 1a 07 be 6e cc 08 be 24 d2 93 3e
       -0.17057076 -0.13193843 -0.13359234 0.28871262
0000c0 d1 e5 10 3e 8d 27 29 3e 87 52 b7 3d 14 94 8b bc
       0.14150168 0.16518994 0.08951288 -0.017038383
0000d0 dc 29 77 3d 4e c5 dc bd 90 d6 f7 bd 67 58 17 3e
       0.060342655 -0.107798204 -0.121014714 0.14779817
0000e0 ba d4 1e 3e c1 dd 35 be a1 19 d6 be 92 f2 8a be
       0.15510836 -0.17760374 -0.41816428 -0.2713819
0000f0 a0 cd df 3d 9d 50 6e 3e 15 39 d5 bd d5 f9 6d be
       0.10927892 0.23272939 -0.10411278 -0.23239835
000100 c9 d4 69 3e 1d 51 96 3e 14 2a 52 3e 58 ff a9 bb
       0.22835077 0.2935876 0.20523864 -0.00518791
000110 4b 48 0d 3e 71 f5 4c be 56 2e 2b 3e 6e 26 22 be
       0.13797109 -0.20015503 0.16716895 -0.15834972
000120 fc 35 9c 3d 7a 71 2b 3e 6a 65 12 3e 00 91 46 3e
       0.07627484 0.16742507 0.14296499 0.1939125
000130 e7 21 1c bd 81 71 2d be 13 f1 a5 3d 27 40 2b 3e
       -0.03811827 -0.1693783 0.08102622 0.16723691

linears.1.weight f4 [80, 80]
000000 17 26 33 3e d5 d1 74 3e f4 65 26 3e e0 e9 e6 bd
       0.17494999 0.2390817 0.1624983 -0.11275077
000010 74 0c e7 bc 0c 0a 3a 3e 8e 31 ac 3e 45 a1 03 3c
       -0.02820418 0.18167895 0.33631557 0.008034055
000020 cd d4 46 3e db 9b 48 3e b8 27 8b 3e ef 5a 33 be
       0.19417115 0.19590704 0.2717874 -0.17515157
000030 6f 66 1a 3e 1a c0 85 3d 22 3b 1d 3e 7a ed 8b 3d
       0.15078138 0.06530781 0.15354589 0.068324044
000040 86 2f 22 bd b9 7c dc be 31 dd b7 bc ea b2 c0 3d
       -0.039596103 -0.43063906 -0.02244434 0.09409125
000050 b2 df b0 bd c8 27 83 bd 46 4c 39 bd 7c b1 1a 3e
       -0.086364165 -0.06404072 -0.045238756 0.15106767
000060 db c8 0c 3e b3 3e 7d bd 7d af e5 3d ae bb 8c bd
       0.13748495 -0.061827373 0.11215112 -0.068717346
000070 54 76 db bd 26 9a d4 bd b4 14 8f be b1 01 d6 bd
       -0.10715929 -0.10380964 -0.27945483 -0.10449541
000080 6c fb d9 3d a7 03 e4 3d 45 6f 4f be 4a 2a 20 bd
       0.10643658 0.11133509 -0.2025729 -0.03910283
000090 e1 7e fc bd 67 0f 22 3b 2c 69 b7 bd 8b 21 3f bd
       -0.12328888 0.0024728419 -0.08955607 -0.04666285
0000a0 a9 21 1c 3e c0 62 71 bd d5 81 0d 3c 61 ec 78 be
       0.15247215 -0.058932066 0.008636911 -0.24308921
0000b0 55 e6 ec bd 2b cf 31 be 16 9c 09 3d 71 1c a3 3d
       -0.1156737 -0.17364185 0.03359612 0.07964409
0000c0 f3 16 2e bd a9 ff 7b 3e 4b 06 30 be b6 b2 ca 3d
       -0.042502355 0.24609245 -0.171899 0.09897368
0000d0 d1 98 94 bd 36 f1 1b be aa 4b b2 bc 85 6c 3a 3d
       -0.0725571 -0.15228733 -0.021764595 0.04551365
0000e0 b0 b2 81 3d 24 92 76 be 9e 6a e8 3c 3f e0 1b 3e
       0.0633291 -0.24079186 0.028371152 0.15222262
0000f0 ab d4 82 3e d6 1c 58 3e 3f ce ec 3d 4b a7 37 bd
       0.25552878 0.2110475 0.11562776 -0.044837277
000100 73 84 87 3d a0 e3 38 3e d3 23 28 be 06 9a af bd
       0.066170596 0.18055582 -0.16419916 -0.085742995
000110 63 df 46 bd f6 e1 81 be 58 3e 5c be 84 f0 2f be
       -0.048552882 -0.25367707 -0.21508157 -0.17181593
000120 a7 5a 04 3e 43 2a 3b bd ee 63 81 3e 1b 08 bc 3a
       0.12925206 -0.0456946 0.25271553 0.0014345677
000130 f3 f0 31 3e 95 58 52 3d 76 23 1a bc 19 2c 82 3e
       0.17377071 0.05135401 -0.009407869 0.2542427
000140 ce 51 fc 3d c9 eb df bd 2d 8f 5d be 7b 7a a0 3d
       0.123202905 -0.10933644 -0.21636648 0.07835861
000150 d4 ed 1f 3d 56 c7 2c 3d 9c d7 85 3b cb 66 96 bd
       0.03904517 0.04218229 0.0040845405 -0.07343825
000160 e7 96 d3 bd 38 8e 7a bd a0 da ea bd bf ad ad 3e
       -0.10331517 -0.061170787 -0.11467481 0.3392162
000170 9f 5f da 3d f2 8f 46 3d 5c 36 4e 3d 1c ac b6 bd
       0.106627695 0.04847712 0.05034481 -0.08919546
000180 9a d9 27 be df 39 46 bb 1b 99 4e 3e 79 0a 80 bd
       -0.16391602 -0.0030246896 0.20175593 -0.062519975
000190 6e 8f c7 be 88 27 12 bd 91 a2 06 3e 8a e5 9a bd
       -0.38976616 -0.03568223 0.13147952 -0.07563312
0001a0 20 34 ac be 39 46 00 3e 7a 5b 22 be 12 12 cf 3c
       -0.33633518 0.12526788 -0.15855208 0.025277171
0001b0 43 ed 41 3e 09 88 70 bd 91 09 25 bc 13 ed e7 bc
       0.18938164 -0.058723483 -0.010073082 -0.028311288
0001c0 10 06 45 bd a3 1f 11 3e 9a cd 5f 3d f3 1b 3f 3d
       -0.048101485 0.14172225 0.054639436 0.046657514
0001d0 1f 3f 61 3e b3 e5 27 bd 76 75 5c be f4 53 a1 3d
       0.21996735 -0.040990543 -0.21529183 0.07877341
0001e0 b0 bb 05 3e 11 f8 3a bd 11 9e 2f 3c 4e 99 f9 3d
       0.13059878 -0.04564673 0.010718838 0.12187444
0001f0 3e 66 57 be da df 6b 3e b2 ae 46 3d 58 11 4a be
       -0.21035096 0.23034611 0.048506446 -0.19733179
000200 59 cb 3b bc 09 b6 78 3c a1 00 dd 3c 4d b5 25 3e
       -0.011462056 0.015180119 0.026977839 0.16182442
000210 94 59 40 3d 85 15 75 bc 9c 60 df bd 1e 6d f5 bd
       0.04696043 -0.014958744 -0.10907099 -0.11983703
000220 82 7c f6 3c 1c 8e d0 bc f4 22 ad 3d 51 38 a3 3d
       0.030088667 -0.025458388 0.084539324 0.07969726
000230 77 30 13 be 68 34 eb 3d e3 11 13 be 3c 26 2c 3e
       -0.14373957 0.11484605 -0.14362292 0.1681146
000240 e5 9a 0e be cb 84 a6 3e bb 41 f9 3c eb 21 b0 bc
       -0.13926275 0.32523188 0.03042685 -0.021500548
000250 b3 0e dc bd 28 2d c5 3a f3 b7 bd bc 9e 34 04 3e
       -0.10744991 0.0015043365 -0.023159003 0.12910697
000260 33 21 0b 3d 66 f8 81 bd 37 aa 86 3e 0b 30 7b bd
       0.033967208 -0.06346206 0.2630174 -0.061325114
000270 48 6a d9 bc de 73 9a bc 07 96 28 bb fc 83 85 be
       -0.026539937 -0.018854078 -0.002572419 -0.2607726
000280 8c 85 97 be bd ca dc bd 10 46 b8 be 1f d9 61 3e
       -0.29594076 -0.10780857 -0.35990953 0.22055481
000290 2f bf ec 3d 25 83 1b 3e 27 14 c1 bc d5 4f 9f 3d
       0.11559903 0.15186746 -0.02356918 0.077788986
0002a0 dc a3 75 be 3f 62 a3 3e a4 c5 92 3d ce e0 00 3e
       -0.23988289 0.31910893 0.07166603 0.12585756
0002b0 c8 eb 0a be d9 d9 32 3e 2e 3f 68 bd 29 9c 48 3d
       -0.13566506 0.17465915 -0.056700878 0.04897705
0002c0 1d cd 02 3e 11 ef 01 3f b2 e1 1f 3e 04 47 20 bd
       0.12773557 0.5075541 0.1561344 -0.039130226
0002d0 ed 4d 19 be 27 ac 8b 3e 79 f9 ed 3d be 10 05 be
       -0.14971133 0.2727978 0.11619849 -0.12994668
0002e0 2c b8 79 be 94 e9 92 be df fe f5 3d 83 a9 a3 bc
       -0.24386662 -0.2869383 0.120115034 -0.01997829
0002f0 8f c8 b7 3e 95 fd e7 3d 73 d2 4f 3e cd 28 ac be
       0.35895202 0.11327664 0.20295124 -0.3362488
000300 c1 a2 02 bd 41 0b 03 bd bb 73 43 3e 46 ba 26 bd
       -0.031893495 -0.031993154 0.19087116 -0.040704988
000310 81 15 9a 3e 6d 74 f6 3d ad ff 8d 3e dd 7a 33 bd
       0.3009453 0.12033925 0.27734128 -0.043818343
000320 ca 8d e7 be 63 49 0e be 68 fe 70 be 29 b1 af 3e
       -0.45225364 -0.13895182 -0.23534548 0.3431485
000330 88 69 70 be d3 f9 f0 3d db cb 3a be dd 80 16 be
       -0.23477757 0.117664 -0.18241827 -0.14697595
000340 91 f9 16 bc 78 61 d4 bc 78 ea cd 3e 48 c8 7a bd
       -0.009214775 -0.025925383 0.40217948 -0.06122616
000350 f6 4a 70 3e f1 f1 86 3d ee 95 da 3d a0 ad 32 be
       0.23466095 0.065891154 0.10673128 -0.17449045
000360 4b 04 d8 3c 37 93 a5 3e c5 d2 ad be 13 90 6d be
       0.026369235 0.3233888 -0.33949867 -0.23199491
000370 90 dd 46 be 63 48 ce be 96 07 98 3d b8 64 11 bd
       -0.19420457 -0.40289602 0.07423322 -0.035496444
000380 cf 50 3e 3e b5 9d 95 3e 5e 0e a3 3e fe ec 0f 3e
       0.18585514 0.29221883 0.318469 0.14055249
000390 ea c1 0f 3e 64 f7 9b 3e 62 7e f9 3e 9f 55 7f 3d
       0.14038816 0.30462182 0.48729235 0.062337514
0003a0 e6 39 76 be ef 23 23 be 30 b7 cd bd 0b 28 70 3e
       -0.24045524 -0.15931676 -0.10044706 0.23452775
0003b0 d6 3f 19 be 66 83 5a be 89 f5 05 bd f8 5c a2 be
       -0.14965758 -0.21339187 -0.032704864 -0.31711555
0003c0 72 1e c5 bd d0 8e da bd 7f 51 be bd cc 76 27 bd
       -0.096249476 -0.106717706 -0.09292888 -0.040884778
0003d0 fd 8b 80 bd 5b 35 78 3d 7f 4a 19 be d4 6e f3 bb
       -0.06276701 0.06059776 -0.14969824 -0.007428983
0003e0 a5 79 5d bc 08 5c 5e 3e 51 82 be bd c5 d0 c5 3d
       -0.013517772 0.21714795 -0.093022 0.0965896
0003f0 9f 15 ca bd 2a 83 16 3e c2 58 5f 3d c6 4b f0 bc
       -0.09867405 0.14698473 0.054528005 -0.029333007

linears.1.bias f4 [80]
000000 f1 95 d0 3d c0 f9 db 3c 13 3f 5d 3e c1 14 9f 3d
       0.10184849 0.026852489 0.21606092 0.0776763
000010 e2 aa e3 39 e3 ed 1d ba 56 d5 1b bd b7 07 f0 3b
       0.00043424132 -0.00060245226 -0.03804525 0.0073251384
000020 39 5f cb bd 60 cf 2d bc c1 59 99 bb ed fa e3 3d
       -0.09930272 -0.010608524 -0.004679889 0.11131845
000030 fd 97 3e 3e 2f a3 35 3e c1 b6 30 bc 88 e2 e5 bd
       0.18612666 0.17738031 -0.010785759 -0.11224848
000040 f1 6f bb 3c 16 66 81 bc 73 66 2c 3e 53 d2 1b be
       0.022880526 -0.015795749 0.16835956 -0.15216951
000050 66 9d 06 be 99 eb d8 bd f6 e8 62 3c 23 a3 2c be
       -0.1314598 -0.10591812 0.0138494875 -0.16859107
000060 78 fc a4 3b e0 73 22 be f3 78 86 bd 60 82 01 3d
       0.0050349794 -0.15864515 -0.06566038 0.031618476
000070 8e 6d a3 3d 5c a3 f9 bd 3c 5c 0c 3e 68 b8 d3 bd
       0.0797988 -0.121893615 0.1370706 -0.10337907
000080 59 ec fe 3b 45 83 78 3d 1b 08 b4 bc 03 74 17 3d
       0.0077796397 0.060672063 -0.021976521 0.03697587
000090 31 71 5f bd ab 71 22 3e 81 1e 61 3d 4e 47 c7 bd
       -0.054551307 0.15863673 0.05496073 -0.09730397
0000a0 c9 f2 1f 3d 8e 15 23 be fc e1 00 3e 2b d8 92 be
       0.039049897 -0.15926191 0.12586206 -0.28680548
0000b0 0f 6d 9f 3c ba 2d df 3b 0b 24 a9 3c 44 a6 df bd
       0.019461183 0.006810871 0.02064707 -0.109203845
0000c0 6a 37 eb 3d 30 aa ab 39 80 ff 60 3c 80 5c 05 be
       0.11485179 0.0003274246 0.013732791 -0.13023567
0000d0 06 61 03 be a3 8d da 3d 8b db 47 3d 4b fe 03 3e
       -0.1282998 0.10671546 0.048793357 0.12889974
0000e0 c5 43 69 bd f1 d7 c4 bd 38 30 08 bd ca af ef 3d
       -0.056949396 -0.096115 -0.03324911 0.11703451
0000f0 3a b2 a2 3d 65 97 09 3e e0 35 e2 bc 4a ee c2 bc
       0.0794415 0.13436659 -0.02761358 -0.023795266
000100 39 b5 0a be db 7c 0c be 8c 84 44 3e 47 8e fa bd
       -0.13545693 -0.13719504 0.19191188 -0.122341685
000110 bd 0a 20 be f0 c9 78 bc d9 9d f3 bd 41 ed 1d be
       -0.15629096 -0.015184864 -0.118953414 -0.15422536
000120 e2 7c e3 3c f8 5c 0a be d3 0a 89 bd 82 6e 6a bc
       0.02776951 -0.13512027 -0.06691518 -0.014308574
000130 90 14 df bd 0e b8 a9 bc 2a 16 d4 bd 54 b9 65 bd
       -0.10892594 -0.020717647 -0.1035579 -0.056084946

linears.2.weight f4 [1, 80]
000000 48 15 31 3f 80 17 be 3d c4 7d 7b 3e db 17 50 3d
       0.691731 0.09281826 0.24559695 0.050804
000010 b6 d2 98 bd f1 08 d8 bd 44 a3 69 bd d1 89 8a be
       -0.07462065 -0.105485804 -0.057040468 -0.2705827
000020 30 76 d9 be c8 19 a0 be 10 f3 68 3d 7c 45 8f 3e
       -0.42472982 -0.3126967 0.056872427 0.279827
000030 d6 a1 69 3e 4d 26 b1 3e ed 91 9c bd 13 22 18 3e
       0.22815642 0.34599534 -0.07645021 0.14856748
000040 19 6e 2e 3e 95 37 f2 bd cc 7a 83 3e 52 98 82 be
       0.17034186 -0.11827008 0.25679624 -0.25506836
000050 1a 86 94 be db 2f 4d be ae 73 1f bd 35 64 76 be
       -0.2900856 -0.20037787 -0.03892868 -0.24061663
000060 48 1a a8 3d db 37 6e be 5e df a7 be 88 54 93 3e
       0.08208138 -0.23263495 -0.32787603 0.2877543
000070 72 9c 69 3e d5 2a 9f be 51 68 a9 3e 39 81 8a be
       0.22813585 -0.31087366 0.330874 -0.27051714
000080 72 e5 1c be c0 43 33 3d e2 88 d3 3d a3 14 10 3e
       -0.15321901 0.043765783 0.10328843 0.14070372
000090 c7 c0 42 be 3d 6a aa 3e 5b e9 b3 3e fc 57 0a bf
       -0.19018851 0.33284178 0.35138974 -0.54040504
0000a0 f7 7d 68 be 4f 95 b3 be a1 65 cd 3d 70 ac 62 be
       -0.22704302 -0.3507485 0.1002915 -0.22136092
0000b0 84 08 3e 3e 19 d9 cf 3c dd 63 28 3d 0c 73 92 be
       0.18557936 0.025372075 0.041110862 -0.286034
0000c0 f8 1d ab 3e 20 59 6e 3d ad a6 6b bd 42 78 a2 be
       0.33421302 0.058190465 -0.057532 -0.31732374
0000d0 29 72 cf be 3d 95 b7 3e dd 9f cc 3d 09 96 4a 3e
       -0.40516785 0.35856047 0.09991429 0.19783796
0000e0 df c1 a3 be 98 db 93 be f8 1c cf bb ea 53 b6 3e
       -0.3198385 -0.28878474 -0.006320592 0.35610896
0000f0 9c f3 4f 3e 80 3f 7f 3e 29 5d 34 be 5e ca ad bb
       0.20307773 0.24926567 -0.17613663 -0.005303665
000100 d7 e5 88 be 7e 1c b2 be 8e fd 6e bd 6e 12 8f be
       -0.26737854 -0.34787363 -0.058347277 -0.27943748
000110 f9 8c cf be 3e 1e bb be 74 56 87 be a1 49 06 be
       -0.4053724 -0.3654651 -0.26433146 -0.13114025
000120 7d 56 53 3e 62 44 7c be b8 c7 f6 bd 6a e8 b9 3d
       0.20638461 -0.24635461 -0.12049812 0.090775326
000130 43 3c 4f be d3 f0 13 3e 33 40 7b be 40 5e ab be
       -0.20237832 0.14447336 -0.24536209 -0.33470345

exp_avg f4 [80, 2]
000000 ec 03 10 3b 67 02 c7 b9 80 6b 22 39 27 7f fa b9
       0.0021974994 -0.00037958028 0.00015489571 -0.00047778452
000010 12 5e 61 39 6f 1a ea b9 2a 09 e1 b8 f6 50 c4 39
       0.00021492716 -0.00044651653 -0.00010730543 0.00037444354
000020 bd 53 d0 38 95 63 56 b7 ca 3f 9f ba 1e 0c 31 39
       9.93381e-05 -1.277858e-05 -0.0012149748 0.0001688455
000030 f7 91 4a 3a fa 77 0a ba 21 c7 16 ba be 80 8a 39
       0.0007727439 -0.000528216 -0.00057517184 0.00026417332
000040 aa 05 0b 3b a3 12 db b9 07 82 f0 ba 4f fb e9 38
       0.0021213093 -0.0004178482 -0.0018349298 0.00011157116
000050 38 21 a5 ba 5b 7f 3a 39 61 2b 7c b8 e1 19 a9 39
       -0.0012598401 0.00017785786 -6.012188e-05 0.00032253473
000060 bd f8 94 3a 0e ba ba b9 29 26 b7 ba 4f 91 6b b7
       0.0011365634 -0.00035615306 -0.0013973165 -1.4040924e-05
000070 0d c0 80 3a dc 7f 4f b9 11 35 e3 36 19 e7 67 b7
       0.0009822861 -0.0001978869 6.771305e-06 -1.382248e-05
000080 54 79 f6 38 06 c8 99 b9 cb 23 fc ba db b1 77 3a
       0.00011752793 -0.00029331463 -0.0019236741 0.0009448805
000090 15 67 b9 ba c0 73 c9 39 95 4d 80 b8 aa 8d 37 38
       -0.0014145101 0.00038423948 -6.1179664e-05 4.3762535e-05
0000a0 5f 70 f8 3a af e3 cb b8 b8 3b 86 ba 33 42 57 39
       0.0018954388 -9.722204e-05 -0.0010241186 0.00020528659
0000b0 36 33 f8 37 aa bf b3 b8 07 ea f6 3a 47 69 00 ba
       2.958775e-05 -8.571085e-05 0.0018838056 -0.00048985
0000c0 e3 3b d3 3a 86 e5 21 ba 7c 17 0c 3b b1 06 da b8
       0.001611587 -0.0006175864 0.0021376302 -0.000103962964
0000d0 53 2e 0c ba 73 a2 52 39 79 c2 ad 3a 05 e6 43 b8
       -0.0005347479 0.00020087678 0.001325681 -4.6705845e-05
0000e0 0c 53 d4 ba d6 f7 84 39 4b 73 9c ba 94 5c 92 39
       -0.0016199066 0.00025361654 -0.0011936215 0.00027916266
0000f0 e7 a6 c0 b9 80 5c c7 39 ad e2 1b 3b 7b a9 ef b9
       -0.00036745446 0.00038025156 0.0023786232 -0.00045711905
000100 1f 55 a6 3a 3b ee 40 b9 51 e4 d0 39 70 c2 01 39
       0.0012690163 -0.00018399295 0.0003984296 0.00012374832
000110 6a 17 3d 39 c2 97 01 39 ac d6 01 3a db 78 4c b8
       0.00018033167 0.00012358933 0.0004952948 -4.8749946e-05
000120 d9 68 5d ba 59 b8 b7 39 1d bb b4 ba 45 fa a7 39
       -0.00084461045 0.0003504183 -0.0013788674 0.00032039187
000130 e8 55 d2 ba 91 be 0b 3a 53 42 71 3a 5d 76 05 b9
       -0.001604733 0.0005330826 0.00092033035 -0.00012727962
000140 02 e8 eb 3a 40 cc 2a ba 0d a1 c4 3a c1 57 58 37
       0.0017998221 -0.0006515421 0.001500161 1.2895035e-05
000150 10 d0 6e 3a 7a 8e 0c b8 8a 59 8a ba 16 bf 17 3a
       0.0009109983 -3.3511293e-05 -0.0010555249 0.0005788667
000160 2f a7 0c 3a fe 24 e2 b8 da 44 95 39 9b 08 9b 39
       0.00053654885 -0.0001078341 0.00028470793 0.00029570315
000170 48 b6 f4 3a 97 4e 01 b8 1d fb 7c 39 d4 53 a9 b9
       0.0018670047 -3.082919e-05 0.0002412614 -0.0003229665
000180 e2 2b 7d b8 24 0a 11 b9 13 36 86 b9 06 8a ac b9
       -6.036077e-05 -0.00013832055 -0.0002559876 -0.00032909232
000190 76 4d 2c bb 0f 82 13 3a 75 1a bf 3a 00 26 c4 b9
       -0.0026291288 0.0005626985 0.0014580028 -0.00037412345
0001a0 6c 4a d3 ba 9d d3 a9 39 5c a6 83 3a ba 8e 94 38
       -0.0016120202 0.00032391856 0.0010044086 7.083775e-05
0001b0 26 10 9a 38 02 44 b9 39 ac 16 8f 3a 54 36 e2 b9
       7.3463e-05 0.0003533662 0.0010916791 -0.00043146557
0001c0 a9 ac 40 ba cb 22 93 38 2b 4b 72 ba ad 8c 16 3a
       -0.0007349947 7.015987e-05 -0.0009242768 0.0005743008
0001d0 98 23 19 3b e3 e0 e7 b8 38 51 16 3b ff 1e 52 b9
       0.0023367163 -0.00011056827 0.0022936594 -0.00020038708
0001e0 c4 7b 03 3b 2b 53 48 ba 7e 7e 0e 3a ed fb e2 b9
       0.0020062784 -0.00076417875 0.0005435719 -0.00043293778
0001f0 fa d5 9f 3a 69 ca 52 b8 8d 24 b9 b9 7c 88 62 b9
       0.0012194507 -5.025641e-05 -0.00035313182 -0.00021603884
000200 1b 89 01 bb 07 7a 61 39 13 77 08 bb e2 30 59 39
       -0.001976556 0.00021503131 -0.0020822927 0.00020712943
000210 d0 ed b7 ba 5a 1c e4 38 85 d8 d0 ba 1d 6a d1 39
       -0.0014032666 0.00010877168 -0.0015933668 0.00039942647
000220 70 b9 e6 ba ac 10 8f 39 88 00 02 ba d0 e8 28 3a
       -0.0017602872 0.00027287507 -0.00049591856 0.0006443383
000230 a7 3d 88 bb d6 e8 42 3a e7 59 ac b9 c9 de 19 39
       -0.00415774 0.0007435208 -0.0003287338 0.00014674211
000240 fd b8 84 b9 ab 47 67 38 31 48 62 3a 2c 61 01 ba
       -0.0002531483 5.5141438e-05 0.0008631973 -0.0004935439
000250 b4 bb 0b 37 07 cf 82 b9 af e0 1d bb fd 20 cc 39
       8.328749e-06 -0.0002494978 -0.002409022 0.0003893449
000260 e8 9e 0c 3a b7 91 20 b9 de b6 d7 3a d9 52 9b b9
       0.0005364255 -0.00015313072 0.0016457697 -0.0002962563
000270 b4 25 60 b8 75 8c bf b7 08 3f 9d 3a cd 48 18 ba
       -5.3440875e-05 -2.283438e-05 0.0011996934 -0.0005809188

exp_avg_sq f4 [80, 2]
000000 d0 70 26 39 5c 55 8c 37 fa 82 be 3a d7 58 5c 38
       0.0001587302 1.672905e-05 0.0014534884 5.2534826e-05
000010 d6 26 4a 3a 74 0a b6 37 6d 90 19 3a 6e 78 6e 37
       0.00077114755 2.1700958e-05 0.0005858008 1.4213945e-05
000020 ff 36 01 39 3c c5 ac 36 8e 5a 71 38 db 0d 50 36
       0.00012322886 5.1489606e-06 5.7543213e-05 3.100248e-06
000030 9b 57 67 3a 1e 54 ca 37 72 4a be 39 fc 64 11 37
       0.0008825005 2.4119447e-05 0.0003629509 8.666186e-06
000040 df 70 1b 39 92 7b 65 37 ac d1 47 3a ff 58 78 38
       0.00014824 1.3678235e-05 0.0007622491 5.921069e-05
000050 51 b2 c0 38 2b 8e 08 37 d9 ab 3e 3a 7e 9c e5 37
       9.1884875e-05 8.139333e-06 0.0007273532 2.73718e-05
000060 7f 5b 36 39 c3 3b 58 36 88 bc 03 3a e0 dc fe 37
       0.00017390958 3.2221294e-06 0.0005025347 3.0382012e-05
000070 c9 5f 3c 38 1b ef 8b 35 0e 4a 0c 38 a3 7d 28 35
       4.49119e-05 1.0425896e-06 3.344757e-05 6.27677e-07
000080 27 b2 52 3a 2b 4a 13 38 6e 88 d4 3a 38 03 10 38
       0.0008037411 3.5116605e-05 0.0016214976 3.4335273e-05
000090 6f b2 21 39 51 d4 88 36 91 d2 84 35 3b 3b 42 33
       0.00015420628 4.0778327e-06 9.896049e-07 4.5223015e-08
0000a0 81 47 09 3a 7e 3a 2f 38 63 eb 0e 38 88 67 c1 35
       0.000523679 4.1777726e-05 3.407466e-05 1.4409752e-06
0000b0 07 55 26 37 a7 75 77 34 aa 49 ff 38 0c db 89 37
       9.914168e-06 2.3046469e-07 0.000121730685 1.6433674e-05
0000c0 28 28 27 3a ff fa 6f 37 63 e0 9c 3a f0 57 bf 38
       0.0006376528 1.430395e-05 0.0011968728 9.123969e-05
0000d0 5d 6d 93 39 05 b1 0d 37 20 2b 83 39 d3 0c 4f 37
       0.00028119507 8.4454705e-06 0.00025018398 1.2341147e-05
0000e0 87 52 8e 38 27 9d bc 36 30 3f 65 38 1e ac 4a 36
       6.7864596e-05 5.6211315e-06 5.4656703e-05 3.020053e-06
0000f0 07 36 10 3a 3f 7a 5a 37 c9 77 47 39 d5 97 5f 37
       0.0005501215 1.3022275e-05 0.00019022742 1.3327187e-05
000100 ac 85 8f 38 89 dd d2 36 38 20 ec 39 74 51 ba 37
       6.84367e-05 6.284278e-06 0.00045037433 2.2210857e-05
000110 e0 5c ac 39 e6 79 2f 37 ae c3 43 38 36 c2 12 36
       0.00032875594 1.04591945e-05 4.6673864e-05 2.186874e-06
000120 f9 75 df 39 35 5d 3b 37 10 83 95 39 5a f0 9a 36
       0.0004262177 1.116777e-05 0.00028517144 4.6175383e-06
000130 ca d1 71 39 37 d9 ec 36 8c 56 00 39 f6 d0 45 37
       0.00023061704 7.058635e-06 0.00012239272 1.17907675e-05
000140 e3 52 39 3a 80 28 6b 37 4c e5 5e 3a c2 b6 78 38
       0.0007069541 1.4016521e-05 0.0008502796 5.9298014e-05
000150 ba 13 ad 38 f1 6a f6 36 18 0c 6f 3a 6a 14 c6 37
       8.252957e-05 7.343821e-06 0.00091189286 2.3612945e-05
000160 63 d0 f5 36 88 11 3f 35 6e 6e a4 3a 4d 75 4a 38
       7.3258284e-06 7.1178556e-07 0.0012545118 4.8269798e-05
000170 a6 34 84 3a de d0 90 38 fc a8 39 3a 9f e6 ba 37
       0.0010086491 6.9053596e-05 0.00070823706 2.228032e-05
000180 25 67 07 3a a3 36 ac 37 d4 18 8b 3a ca 6f 13 38
       0.0005165211 2.052944e-05 0.0010612258 3.5151643e-05
000190 65 f9 99 39 f0 ba 35 37 ca 37 08 39 65 27 88 36
       0.00029368247 1.08319655e-05 0.00012990754 4.057702e-06
0001a0 53 0c ab 38 af 4f b3 36 19 f1 79 39 f6 8d 45 37
       8.156211e-05 5.343892e-06 0.00023836306 1.1775168e-05
0001b0 16 4e 4f 3a 5b bb c5 37 c6 c5 5a 3a 92 dc ab 37
       0.0007908059 2.3571474e-05 0.00083455106 2.04875e-05
0001c0 71 83 d9 38 43 e0 e7 36 e4 ea 84 3a 0b 7d d7 37
       0.00010371849 6.910444e-06 0.0010140804 2.5688225e-05
0001d0 ea 7c 91 3a 9e 56 a4 38 9d 14 68 3a 8b e2 90 38
       0.0011099849 7.836263e-05 0.0008853169 6.908652e-05
0001e0 9a 78 85 3a 84 14 cb 37 be d0 5f 3a 69 92 cd 37
       0.0010183037 2.420904e-05 0.000853788 2.4506082e-05
0001f0 9b 81 93 39 ab 09 88 37 cc 88 07 39 ba 62 04 37
       0.00028134589 1.6216965e-05 0.00012925564 7.8908e-06
000200 60 25 b1 39 93 56 fe 37 79 24 31 3a a3 85 71 38
       0.00033787917 3.0319474e-05 0.0006757449 5.7583336e-05
000210 d2 0a 82 39 b5 a9 9e 37 7e b4 09 39 ce c6 a2 36
       0.00024803594 1.8914094e-05 0.00013132577 4.85112e-06
000220 ae ca d0 38 8b 30 3e 37 63 d6 fb 3a bf 0a 72 38
       9.955965e-05 1.1336185e-05 0.0019213672 5.7707304e-05
000230 a9 cb 20 3a 1b 5f a5 38 d3 34 b3 39 b7 6f 50 37
       0.00061338634 7.885528e-05 0.00034180898 1.2423777e-05
000240 ed 0f 31 39 ca bf 79 36 71 7a 36 3a 4d 82 70 37
       0.00016885968 3.7215527e-06 0.0006960994 1.4335453e-05
000250 88 02 4e 3a 0c 93 13 38 8b c0 89 39 f4 14 e6 37
       0.00078586536 3.518448e-05 0.00026274132 2.7427894e-05
000260 ea af ea 37 44 60 29 35 43 97 a5 38 08 05 c0 36
       2.797689e-05 6.309749e-07 7.895988e-05 5.7226316e-06
000270 8d a2 00 37 35 0a 2c 35 ff e9 74 3a 98 46 cd 37
       7.667241e-06 6.4089846e-07 0.00093427295 2.4470777e-05

exp_avg f4 [80]
000000 8a fd 92 3a d7 7b 2d bb 47 bb eb ba 13 1f b9 3a
       0.0011214477 -0.002647152 -0.001798489 0.0014123641
000010 d1 20 99 ba c9 99 04 ba dd 78 e0 ba 92 c6 b1 3a
       -0.0011682754 -0.0005058316 -0.0017125864 0.0013563207
000020 94 a3 35 3a af 91 44 bb 88 0a 5f ba d9 df 05 3b
       0.0006928977 -0.002999406 -0.0008508344 0.0020427613
000030 7d d3 5d b9 0c 86 0e bb e6 5a df b8 3d d4 ea b9
       -0.00021154988 -0.0021747379 -0.000106504 -0.00044790088
000040 b8 fe 14 bb 76 dd d9 3a eb fe 5f 39 fe 0f f9 35
       -0.0022734832 0.0016621787 0.00021361902 1.85566e-06
000050 a2 d3 13 3b 91 60 bc b8 ff 3e da b8 d7 85 8c 3a
       0.0022556563 -8.9825255e-05 -0.00010406784 0.001072104
000060 63 3a 83 ba 4e 56 71 3b 9b cf b8 3a 8f ab cb 3a
       -0.0010011907 0.0036825123 0.0014099957 0.0015538799
000070 1f 9b 9d b9 49 79 4c b7 6d 5e b8 3a fa 8c 2c 3a
       -0.00030060948 -1.2187586e-05 0.0014066227 0.00065822864
000080 7d a0 32 3a ca 5a f7 3a 44 f4 cf 3a 09 64 58 3a
       0.0006814076 0.0018871662 0.0015865644 0.00082546525
000090 0e 75 a2 3a 47 08 58 3a 59 58 be 38 30 c2 a5 3a
       0.0012394504 0.00082409795 9.076362e-05 0.0012646373
0000a0 5e a1 81 ba 4d 39 44 3b 20 85 6c 3a b0 6d d3 3a
       -0.000989001 0.002994138 0.0009022523 0.0016130712
0000b0 5f be ee 38 68 0a 36 3b 26 26 58 3b c6 24 fc ba
       0.00011384184 0.0027777199 0.0032981723 -0.0019237034
0000c0 62 1d f9 ba bd f4 19 bb d6 3c 5b b8 2d 95 ce 38
       -0.0019005949 -0.0023491823 -5.2270327e-05 9.8506316e-05
0000d0 b3 8b 75 b9 78 5b cb 3a dd 2d 02 3b 14 ee 04 bb
       -0.00023417063 0.0015514931 0.0019863762 -0.0020283507
0000e0 3a 89 89 ba a9 e7 f2 3a 2b e9 5a 3b ac 71 4e 3b
       -0.0010493167 0.0018532175 0.003340314 0.003150086
0000f0 b6 8b c4 ba 34 7d 03 bb 6d 1d f5 3a 80 e1 a8 ba
       -0.001499525 -0.002006364 0.0018700786 -0.0012884587
000100 48 0e f3 ba 2e c1 31 bb ee 0e c7 ba 92 f1 c9 38
       -0.0018543685 -0.00271232 -0.0015186945 9.629423e-05
000110 aa 5c 6e ba e2 8e 41 3b 04 e5 22 bb ca d3 df 3a
       -0.00090927875 0.0029534628 -0.0024855742 0.0017076668
000120 ec 3f a6 ba ea b6 b4 ba c8 b5 16 bb b7 4c e1 ba
       -0.0012683845 -0.0013787423 -0.0022996534 -0.0017189
000130 1f 3b 29 38 8b bc ee 39 4d 6a 9f b9 59 83 e5 ba
       4.03478e-05 0.00045535373 -0.00030406044 -0.0017510458

exp_avg_sq f4 [80]
000000 51 6c 7b 38 4a a8 b8 39 2d 60 23 39 52 0d dd 38
       5.994394e-05 0.000352206 0.0001558072 0.00010540582
000010 1a f9 22 38 67 3c b6 37 10 74 2a 39 56 e0 75 38
       3.8855804e-05 2.1724218e-05 0.000162557 5.862148e-05
000020 c2 7c 1d 38 11 24 a9 39 e3 79 47 38 db 3c 42 39
       3.7547907e-05 0.00032261063 4.7558813e-05 0.00018523952
000030 16 42 86 36 6d 97 5a 39 5a 1a 35 36 35 2c ab 36
       4.0012046e-06 0.0002084651 2.698644e-06 5.1013435e-06
000040 1e 32 85 39 8f d0 69 39 43 b4 18 37 45 05 5d 33
       0.00025405077 0.00022298306 9.1018765e-06 5.1460365e-08
000050 ab 79 7d 39 d7 3f 82 36 0d 3b f9 35 31 28 18 38
       0.00024173285 3.881734e-06 1.8569132e-06 3.6277055e-05
000060 b9 dc ac 38 a6 1d 05 3a 29 50 66 38 69 e9 d3 38
       8.242712e-05 0.00050779653 5.4910928e-05 0.0001010474
000070 99 4c 54 37 74 bf 35 35 ce 9a ce 38 b5 7c d0 37
       1.2654019e-05 6.7706355e-07 9.85168e-05 2.4853603e-05
000080 ab 7e 1a 38 a3 75 24 39 31 f9 b0 38 f1 2e c0 37
       3.683443e-05 0.00015684082 8.4387495e-05 2.2910042e-05
000090 0d 86 66 38 ad d6 ba 37 3e 6c 5e 37 27 16 92 38
       5.4961118e-05 2.2272894e-05 1.3257433e-05 6.965949e-05
0000a0 05 26 5e 38 6b dd b3 39 41 e8 32 38 a8 55 09 39
       5.2964333e-05 0.0003430651 4.265481e-05 0.00013097248
0000b0 87 38 fc 35 40 0f b5 39 57 53 e6 39 74 3a 36 39
       1.8791915e-06 0.00034534372 0.00043931112 0.00017378648
0000c0 a3 9a 2e 39 28 63 93 39 6d 02 8d 36 fa 18 0f 35
       0.0001665154 0.00028111902 4.20241e-06 5.3307997e-07
0000d0 a6 51 65 37 f8 a5 07 39 7e a7 30 39 45 b5 01 39
       1.3668474e-05 0.00012936431 0.00016847064 0.00012369927
0000e0 5c bd 09 38 a4 21 41 39 b2 83 e1 39 1f 38 bf 39
       3.28397e-05 0.00018418446 0.00043013465 0.00036472172
0000f0 8a f1 00 39 f7 cb 32 39 ea 12 15 39 a4 0f 83 38
       0.00012297012 0.00017051386 0.00014216793 6.24948e-05
000100 83 3a 2e 39 b6 84 96 39 f8 b6 00 39 11 9c 7e 34
       0.0001661573 0.00028709107 0.00012275192 2.371237e-07
000110 8e e5 0c 38 de df e5 39 d0 18 7b 39 6e 02 af 38
       3.359239e-05 0.00043845078 0.00023946469 8.345103e-05
000120 23 45 68 38 45 c5 ee 38 8a b4 84 39 57 65 05 39
       5.53775e-05 0.00011385469 0.00025311514 0.0001272162
000130 83 f3 2e 36 f8 69 7c 37 c4 74 92 36 1d f6 26 39
       2.6069763e-06 1.5045043e-05 4.3647324e-06 0.00015922678

exp_avg f4 [80, 80]
000000 76 72 cf 38 62 f5 c9 b8 68 d5 63 b9 7f 41 7e 39
       9.891849e-05 -9.630133e-05 -0.00021727907 0.00024247727
000010 9b 09 59 b9 43 23 59 b9 76 c7 30 b9 e7 69 59 39
       -0.00020698311 -0.00020707869 -0.00016858973 0.00020734184
000020 5f 2f 91 38 dd 50 e1 b9 a7 bf b9 b8 1e f3 43 39
       6.922962e-05 -0.00042975592 -8.8571855e-05 0.00018687217
000030 ca fa 8c b8 ca 52 90 b9 13 f5 28 39 9f 0f d3 37
       -6.722433e-05 -0.00027527503 0.00016113026 2.5160434e-05
000040 25 93 8b b9 53 d1 12 39 02 80 92 38 72 f9 24 b9
       -0.00026621777 0.00014001624 6.985666e-05 -0.00015733184
000050 e1 5b a8 39 ad d2 08 b9 be ee c4 b5 3f 0f 90 38
       0.00032111912 -0.00013048454 -1.4672621e-06 6.869295e-05
000060 ea 10 60 b8 d3 ed 0b 3a e7 9c 43 39 ee d9 76 39
       -5.3421514e-05 0.0005337868 0.000186551 0.00023541573
000070 95 b3 d5 b8 7f 73 88 b8 5f b7 17 39 fd 2c 61 39
       -0.00010190081 -6.506498e-05 0.00014468793 0.00021474432
000080 90 d0 fb 38 bb de ad 39 05 0c 0a 39 38 f9 3a 37
       0.000120074605 0.00033163078 0.00013165183 1.114449e-05
000090 88 35 a0 38 35 65 19 38 00 ff 33 38 5d 66 79 b8
       7.6393655e-05 3.65723e-05 4.2914413e-05 -5.946156e-05
0000a0 da ab b5 b8 7c 20 6f 39 34 fe 08 b8 d7 50 28 39
       -8.6627624e-05 0.00022804918 -3.2661672e-05 0.00016051844
0000b0 f1 60 2d 39 fb bb 39 39 10 51 e8 38 a3 90 b1 b9
       0.00016534679 0.00017713003 0.00011077721 -0.00033867834
0000c0 c0 4c 52 b9 60 9e 4f b9 61 16 c3 b8 26 1d 98 37
       -0.00020055752 -0.00019800058 -9.302493e-05 1.8133385e-05
0000d0 7d f5 97 b8 cb bd 73 37 d6 30 27 39 91 36 3e b9
       -7.245967e-05 1.4528118e-05 0.00015944554 -0.0001814014
0000e0 47 a2 fb b8 b1 f6 55 39 3a c1 e6 39 62 27 97 39
       -0.00011998839 0.00020405163 0.00044012984 0.00028830307
0000f0 97 58 07 b9 47 c4 8a b9 bc 9c f1 37 30 9b 18 39
       -0.00012907606 -0.0002646765 2.8802424e-05 0.00014553661
000100 26 db 78 b9 bb 62 a3 b9 3e 73 59 b9 c9 08 99 37
       -0.00023732762 -0.00031163343 -0.00020737664 1.8243112e-05
000110 47 fc 19 b9 47 55 72 39 ff 3f 40 b9 b4 9b 5a 39
       -0.00014685198 0.00023110687 -0.00018334387 0.00020848104
000120 83 c6 3d b9 3f 6a 4b b9 65 b7 46 b9 a3 47 65 b9
       -0.00018098396 -0.00019399168 -0.00018951071 -0.00021865829
000130 1c a1 8f 38 4d 6e 41 39 1d 3f ae b8 af 1c 4f b9
       6.84878e-05 0.00018447005 -8.308722e-05 -0.00019751744
000140 be ae 21 b7 28 4b 07 b8 42 47 ab b8 d1 e6 ac 38
       -9.637033e-06 -3.2256503e-05 -8.167188e-05 8.244592e-05
000150 a3 96 71 b8 19 6f 46 b8 08 2f 8d b8 55 ee 93 38
       -5.759917e-05 -4.7310346e-05 -6.732164e-05 7.053899e-05
000160 68 fa 0f b7 18 da 9c b8 dd 8a 46 b7 df fa 77 38
       -8.581766e-06 -7.479283e-05 -1.1834051e-05 5.912303e-05
000170 31 ab 21 b8 6a 45 48 b8 42 19 0c 38 7e 41 04 37
       -3.8544826e-05 -4.7748363e-05 3.3402124e-05 7.883062e-06
000180 99 8d aa b8 2e 25 80 38 28 f3 21 38 de 11 22 b8
       -8.132606e-05 6.110441e-05 3.8611848e-05 -3.864045e-05
000190 bb e2 60 38 7c c3 33 b7 cd 68 89 b4 a9 24 12 b7
       5.361692e-05 -1.0714746e-05 -2.559449e-07 -8.710814e-06
0001a0 aa 7c 05 b8 23 59 cd 38 a2 60 81 38 ea 12 2f 38
       -3.1825773e-05 9.791765e-05 6.1691986e-05 4.1740866e-05
0001b0 e0 87 1d b7 d7 f1 df 36 cf a0 6c 38 50 07 23 38
       -9.389565e-06 6.6740718e-06 5.641655e-05 3.886904e-05
0001c0 76 8f 59 37 80 9f c1 38 9d 5c 37 38 e2 9d 81 b6
       1.296761e-05 9.232666e-05 4.3716853e-05 -3.8628796e-06
0001d0 d1 d9 2a 38 c9 55 06 38 34 5f 02 38 dc fd ee b7
       4.0734016e-05 3.2027983e-05 3.108308e-05 -2.8490023e-05
0001e0 62 58 4d b8 bd 95 00 38 40 30 45 b7 03 4f 81 38
       -4.895812e-05 3.0657033e-05 -1.1753349e-05 6.1659164e-05
0001f0 6f 2d c9 37 d3 c8 65 38 fe f0 25 35 13 e6 d3 b8
       2.3982224e-05 5.4784887e-05 6.181798e-07 -0.00010104119
000200 5b 5c 80 b8 83 ec 81 b8 3a a2 71 36 26 df 94 b7
       -6.120718e-05 -6.195253e-05 3.6006227e-06 -1.7746886e-05
000210 67 f9 6b b6 20 c4 bf b6 6a c7 66 38 5d a6 8d b8
       -3.51629e-06 -5.7150755e-06 5.5021992e-05 -6.7543915e-05
000220 ac 60 ac b7 44 ec 9f 38 94 9a a2 38 c2 c6 24 38
       -2.0549014e-05 7.625719e-05 7.7535544e-05 3.9285755e-05
000230 67 ab 6e b8 c2 72 c1 b8 55 4a 2b b7 b6 6b ec 37
       -5.6903253e-05 -9.2243325e-05 -1.0209701e-05 2.818355e-05
000240 9b 37 06 b8 63 6d 4a b8 a1 f4 b8 b7 33 b8 b8 37
       -3.1999876e-05 -4.8262427e-05 -2.2048423e-05 2.2020284e-05
000250 22 b1 37 b7 48 85 a3 38 7e 99 c5 b7 28 81 93 38
       -1.0948892e-05 7.797271e-05 -2.3555705e-05 7.0335635e-05
000260 73 63 53 b8 7f bb 9e b8 2c 8b 71 b8 20 47 f9 b7
       -5.039894e-05 -7.568951e-05 -5.758849e-05 -2.9716233e-05
000270 47 28 3d 37 93 12 b6 37 5a de af b7 a3 a8 a5 b8
       1.1274656e-05 2.170474e-05 -2.0965166e-05 -7.899224e-05
000280 6c 7f 85 b8 db 69 b4 b7 2c 6c 99 b8 90 18 80 38
       -6.3656684e-05 -2.1506965e-05 -7.315757e-05 6.108091e-05
000290 e8 bb 0b b8 1f b3 5a b7 76 43 86 b8 5f fb 5e 38
       -3.3315184e-05 -1.3035517e-05 -6.4021835e-05 5.3163032e-05
0002a0 a7 3c 41 b8 95 67 fe 37 d7 56 5e 37 ea 76 21 38
       -4.6071273e-05 3.0327394e-05 1.325245e-05 3.849614e-05
0002b0 cb 45 42 b8 dc e3 a8 37 83 cc 9a 36 d9 d0 25 37
       -4.6318204e-05 2.0133266e-05 4.613366e-06 9.8833925e-06
0002c0 c0 1b 54 b8 fd a2 85 38 a1 b9 3a 38 97 0b cc b7
       -5.0570583e-05 6.372293e-05 4.4518736e-05 -2.4324092e-05
0002d0 43 73 e3 b7 8f 0e f2 37 70 3b 91 37 c4 87 41 b8
       -2.7114182e-05 2.8855427e-05 1.7313025e-05 -4.6141227e-05
0002e0 a4 13 1e b8 22 44 e5 b7 ff 81 3d 38 3c dd 9a b7
       -3.7688427e-05 -2.7330654e-05 4.518218e-05 -1.846125e-05
0002f0 bf fd b6 37 16 48 27 38 e7 be 56 38 44 c1 01 b7
       2.181425e-05 3.9883038e-05 5.1199368e-05 -7.733997e-06
000300 fe cc c0 b7 d1 c2 38 38 85 d1 1a 38 ff 21 e1 b7
       -2.298364e-05 4.4050455e-05 3.691159e-05 -2.683792e-05
000310 49 f7 46 38 42 55 3b 38 d2 e2 28 38 f6 3f 3a b8
       4.743718e-05 4.4663677e-05 4.0265564e-05 -4.4405424e-05
000320 07 d7 80 b8 b3 14 19 b8 6d 79 a3 35 02 68 65 38
       -6.1435676e-05 -3.649732e-05 1.2179786e-06 5.469472e-05
000330 31 18 bb b7 79 a2 15 38 71 50 59 b8 75 2d 7d b8
       -2.2303402e-05 3.5675683e-05 -5.181175e-05 -6.0362236e-05
000340 92 b2 2b b8 45 0f 24 b8 ef 6f 42 38 88 26 29 b8
       -4.0935884e-05 -3.9114868e-05 4.635745e-05 -4.0328625e-05
000350 a8 7a a9 37 1e 1e 0a b8 1d 79 35 38 15 14 7b b8
       2.0203486e-05 -3.2929813e-05 4.326656e-05 -5.9861766e-05
000360 ad 15 62 37 1a c7 8c 38 fe a8 ef b7 9b d1 36 b8
       1.34756965e-05 6.712806e-05 -2.8569713e-05 -4.358739e-05
000370 32 64 78 b8 55 c9 9c b8 97 bd 44 b8 50 20 a0 b7
       -5.922112e-05 -7.476161e-05 -4.690661e-05 -1.9088533e-05
000380 4f 8c 18 38 1c db 0e 38 05 ed 40 38 f1 8c 13 38
       3.6370297e-05 3.40595e-05 4.599711e-05 3.5178793e-05
000390 3d a1 22 38 27 30 73 38 1d 10 e4 37 45 da 69 38
       3.8773975e-05 5.798056e-05 2.7187221e-05 5.575481e-05
0003a0 ce 29 25 b8 78 30 95 b8 91 68 17 b8 30 3d f1 37
       -3.9378e-05 -7.113902e-05 -3.609859e-05 2.8757931e-05
0003b0 6b 9f 60 b6 a2 fb 06 b8 80 b6 c7 b6 ec e5 a3 b8
       -3.3471395e-06 -3.218244e-05 -5.951908e-06 -7.815272e-05
0003c0 d6 e8 da b6 55 b9 7c b7 2e bd 28 b8 a6 32 28 38
       -6.524012e-06 -1.50635215e-05 -4.023051e-05 4.010149e-05
0003d0 8e 06 cd b7 44 99 a1 b7 f8 04 0a b8 00 9e 0c 38
       -2.4440957e-05 -1.9264065e-05 -3.290639e-05 3.352575e-05
0003e0 f3 e5 9b b6 87 31 11 b8 c5 5b e1 b6 e5 44 e5 37
       -4.6461296e-06 -3.461682e-05 -6.716206e-06 2.7331009e-05
0003f0 29 71 9d b7 35 7c c3 b7 89 04 5a 37 33 d3 7b 35
       -1.8768553e-05 -2.330365e-05 1.29948685e-05 9.381212e-07

exp_avg_sq f4 [80, 80]
000000 7f 1f ee 36 41 69 c5 34 a7 e9 8d 35 83 b9 25 36
       7.0966194e-06 3.6770692e-07 1.057332e-06 2.4694898e-06
000010 62 d0 08 36 3e 65 e0 35 6f af 19 35 8d 43 a4 35
       2.0386874e-06 1.6718766e-06 5.725223e-07 1.2238612e-06
000020 49 19 7f 36 f5 30 01 38 39 4c 50 36 51 0b 8f 35
       3.801268e-06 3.080159e-05 3.1038783e-06 1.0657624e-06
000030 e3 c7 81 34 74 16 88 37 e3 43 9a 35 fc 02 51 36
       2.417356e-07 1.6222919e-05 1.1493652e-06 3.1145164e-06
000040 dc 44 21 36 10 7e fb 34 75 32 01 34 14 ca 00 37
       2.403095e-06 4.6844116e-07 1.2032417e-07 7.6764445e-06
000050 4a 83 a5 37 23 8b 34 36 6b 93 8c 37 8a 73 85 36
       1.9730669e-05 2.6903078e-06 1.6757947e-05 3.9771594e-06
000060 8a 11 07 34 f2 b9 32 38 e5 ab 6c 35 d3 fc 8d 37
       1.2579235e-07 4.2611682e-05 8.816699e-07 1.692624e-05
000070 0d 98 3c 36 7a 98 57 36 1c 38 fb 34 4d eb 8d 36
       2.8102688e-06 3.212625e-06 4.6793218e-07 4.22952e-06
000080 48 05 90 36 cb 67 c5 36 05 cf 29 36 1b 2b 7e 37
       4.2921492e-06 5.8831406e-06 2.5303464e-06 1.5149616e-05
000090 57 70 9a 34 43 06 db 33 b6 7b 0e 34 da f9 20 37
       2.8766473e-07 1.0199121e-07 1.3269786e-07 9.594916e-06
0000a0 92 ee 17 35 97 27 81 37 76 da 42 37 a5 e0 16 35
       5.659905e-07 1.5396434e-05 1.16141655e-05 5.6206255e-07
0000b0 f4 da 19 37 42 38 6e 35 05 1b 4c 37 e2 09 94 36
       9.17049e-06 8.8743775e-07 1.21656385e-05 4.411894e-06
0000c0 81 d4 ba 35 a1 b0 b4 35 7b 08 a4 36 23 ff a4 35
       1.3919927e-06 1.3462451e-06 4.888568e-06 1.2293207e-06
0000d0 c6 a6 8e 35 8c 9b 88 37 bd 65 3c 35 41 b3 45 35
       1.0628362e-06 1.6284896e-05 7.0183506e-07 7.364907e-07
0000e0 85 ff 24 37 ae 5b 7d 35 fc ed 01 38 3c 46 9e 37
       9.8346545e-06 9.4383256e-07 3.0977637e-05 1.8867773e-05
0000f0 d4 b2 d4 34 65 18 02 36 11 38 87 37 0b d1 cd 37
       3.9618192e-07 1.938571e-06 1.6119362e-05 2.4535248e-05
000100 85 d1 70 37 76 dc a1 37 8a 22 76 37 55 01 85 35
       1.4353897e-05 1.9295356e-05 1.4670784e-05 9.90966e-07
000110 6d 0d e2 36 4b 76 e2 35 fc b9 e5 36 fa 60 9e 35
       6.736888e-06 1.687274e-06 6.8463833e-06 1.1800141e-06
000120 de 4f 0d 37 7d 51 4b 35 1a 82 86 35 e7 8d 06 37
       8.42285e-06 7.5741974e-07 1.0021643e-06 8.020062e-06
000130 2b 4f 70 34 fe 7b 03 37 b9 15 84 35 58 6e 5c 35
       2.2380543e-07 7.837078e-06 9.841089e-07 8.211696e-07
000140 66 94 27 34 d5 ce cc 32 ec 85 13 34 82 e9 2d 34
       1.5607074e-07 2.3842782e-08 1.3739162e-07 1.619683e-07
000150 79 67 15 34 74 f7 c7 33 75 81 c7 33 e3 7e e6 33
       1.391435e-07 9.311671e-08 9.290208e-08 1.073329e-07
000160 8e 6f c0 33 bf 0b 45 35 09 c7 b0 33 6b a5 a7 33
       8.9609884e-08 7.340531e-07 8.231843e-08 7.806633e-08
000170 c9 4a 15 33 00 3f d8 34 d9 da 7f 33 ce ce 00 34
       3.4759783e-08 4.0278974e-07 5.9570855e-08 1.1996164e-07
000180 56 8f 22 34 a0 34 aa 33 c2 3a 02 33 ba 16 ba 34
       1.5139571e-07 7.925814e-08 3.0321424e-08 3.4661736e-07
000190 c8 aa fc 34 c9 e3 4d 33 7f fd 1d 35 b8 20 cc 33
       4.7062917e-07 4.793745e-08 5.8855943e-07 9.505442e-08
0001a0 45 59 c3 32 8c 38 8b 35 d3 32 b9 33 4f 0f f1 34
       2.2741583e-08 1.0372764e-06 8.623979e-08 4.4900887e-07
0001b0 a9 a7 89 33 f1 59 a7 33 51 8f 93 33 a8 85 c7 33
       6.410057e-08 7.792904e-08 6.87129e-08 9.2909715e-08
0001c0 de e6 da 33 51 a8 7c 34 4b af 16 34 bc 67 0a 35
       1.01934106e-07 2.3530562e-07 1.403361e-07 5.155996e-07
0001d0 1c 46 2a 33 1e 75 ae 32 af 78 b7 32 65 86 bc 34
       3.9644974e-08 2.0309525e-08 2.1358884e-08 3.5115514e-07
0001e0 86 3f 7e 33 db c8 c7 34 41 0b da 34 d9 c8 a7 33
       5.9196758e-08 3.721278e-07 4.0613853e-07 7.8130775e-08
0001f0 ae 04 7d 34 72 29 a5 33 fd bc aa 34 b3 4e 83 34
       2.3564164e-07 7.69095e-08 3.1802475e-07 2.4457913e-07
000200 5f fd f4 33 13 de ba 33 fd b2 ef 33 bb be 19 33
       1.1408223e-07 8.701695e-08 1.11618625e-07 3.5796557e-08
000210 e6 7c af 32 2f 47 12 35 3c 86 a1 33 0d b1 d3 33
       2.0429479e-08 5.4492824e-07 7.521564e-08 9.8576585e-08
000220 ef f9 9a 34 02 ce 00 34 f8 f3 45 35 f0 b5 e5 34
       2.8866586e-07 1.1995874e-07 7.374324e-07 4.278695e-07
000230 4e c6 93 33 39 57 45 34 84 07 09 35 e5 b2 4a 35
       6.881292e-08 1.8378786e-07 5.1047414e-07 7.551119e-07
000240 1c 13 b4 34 42 39 f0 34 21 39 b9 34 37 75 31 33
       3.3541517e-07 4.4745144e-07 3.4500502e-07 4.131763e-08
000250 5b b7 1f 34 ee a4 0f 34 d9 fd 21 34 03 39 02 34
       1.4874733e-07 1.3377914e-07 1.5086643e-07 1.2127934e-07
000260 24 71 d0 34 43 36 fb 33 90 8b b0 33 ee be 35 34
       3.882534e-07 1.16979685e-07 8.221025e-08 1.6926398e-07
000270 5b d3 21 32 c1 49 3a 34 ca 7e f4 32 e9 5f 0b 34
       9.41949e-09 1.7349431e-07 2.8462996e-08 1.2980276e-07
000280 d0 2b 13 34 48 d1 6e 34 6b 1c e7 35 e5 46 e6 35
       1.3706381e-07 2.2241613e-07 1.7219112e-06 1.7156968e-06
000290 d4 57 9f 34 b0 9d 03 34 6f 41 97 35 0c b5 92 35
       2.967996e-07 1.2257692e-07 1.126942e-06 1.0930539e-06
0002a0 b7 5c 98 33 a9 dc bc 35 fc c3 c1 33 f3 6b 30 35
       7.094916e-08 1.4071312e-06 9.022912e-08 6.5722196e-07
0002b0 13 38 d5 34 6f 82 40 35 1c cd 0c 33 7f e2 84 33
       3.971514e-07 7.171538e-07 3.2782836e-08 6.1879284e-08
0002c0 8e a6 ad 35 16 4a 7e 35 a6 a9 df 34 2c fb 9a 33
       1.2937978e-06 9.473018e-07 4.1660422e-07 7.216872e-08
0002d0 d9 53 55 35 ed 9b d3 32 e1 a8 06 35 d0 be 98 33
       7.94707e-07 2.463454e-08 5.016464e-07 7.11276e-08
0002e0 a8 b0 91 34 6e 2b 1c 36 85 69 3b 35 5a f6 49 35
       2.713689e-07 2.327109e-06 6.981648e-07 7.5236824e-07
0002f0 92 f4 31 33 ff 7c 54 33 0a ed 3d 35 f3 b4 76 34
       4.143346e-08 4.947378e-08 7.0752924e-07 2.2976364e-07
000300 b0 7c ae 33 11 9a e2 35 bb 5b 3b 34 1b 53 b0 34
       8.125187e-08 1.6883151e-06 1.7449103e-07 3.2843022e-07
000310 54 28 e3 34 6c 1d bc 34 27 58 9a 34 28 cf e1 33
       4.2311387e-07 3.5039136e-07 2.8748875e-07 1.05150605e-07
000320 7c 91 31 35 90 cd d0 34 ce c6 13 35 88 dc 72 35
       6.6149346e-07 3.8892586e-07 5.5051066e-07 9.047294e-07
000330 87 1d 97 34 ae 9f ee 34 71 21 17 34 e8 64 0c 36
       2.8147426e-07 4.4447137e-07 1.4075137e-07 2.092036e-06
000340 7b 1d 04 35 a0 17 49 35 96 fe 85 33 81 ca f9 33
       4.921673e-07 7.4912714e-07 6.239604e-08 1.1631801e-07
000350 0d 03 27 32 8a 9b a4 34 2c fd 0d 35 b7 4f 87 35
       9.721373e-09 3.066055e-07 5.2895007e-07 1.0081484e-06
000360 e1 51 d0 34 40 89 c2 35 61 71 c5 35 53 87 f8 34
       3.8802594e-07 1.4494071e-06 1.4710641e-06 4.629206e-07
000370 1b 0f 5a 35 40 2c 0e 36 ac 64 61 34 ec ac 84 35
       8.123331e-07 2.1185406e-06 2.0991382e-07 9.885093e-07
000380 4a 22 bf 34 06 42 2b 35 ad 2f 8a 34 13 d8 e3 33
       3.560147e-07 6.379854e-07 2.5739192e-07 1.0609815e-07
000390 0f 9c aa 33 b4 11 bb 35 fa 32 22 34 e5 5c 70 35
       7.944629e-08 1.3937738e-06 1.5105971e-07 8.9542146e-07
0003a0 41 a7 0b 34 83 76 c3 35 5b a9 05 35 e0 a2 4a 34
       1.300623e-07 1.4563124e-06 4.9792806e-07 1.887197e-07
0003b0 55 54 9d 30 05 f1 1d 34 5d de 07 34 9d 86 d6 35
       1.1447222e-09 1.4709447e-07 1.265375e-07 1.598342e-06
0003c0 67 d3 7a 31 75 eb de 31 c2 39 3d 33 b6 9e 4e 33
       3.6499956e-09 6.4878187e-09 4.4057522e-08 4.810746e-08
0003d0 32 75 bf 32 6b e6 93 32 90 65 f1 32 f1 04 03 33
       2.228862e-08 1.7217834e-08 2.8102278e-08 3.050531e-08
0003e0 dd 8c 07 31 f7 d4 92 33 9f 04 d3 31 16 f2 ab 32
       1.9725157e-09 6.837393e-08 6.1414336e-09 2.0017108e-08
0003f0 d5 da 12 32 0a 3d 1f 33 7f d8 40 32 6a 3d 62 32
       8.548075e-09 3.7075587e-08 1.1225096e-08 1.3168895e-08

exp_avg f4 [80]
000000 27 b4 94 ba fc 4f 8f b9 f7 e2 95 b8 25 cc 08 b9
       -0.0011345193 -0.00027334678 -7.147149e-05 -0.0001304602
000010 9f 83 82 39 e4 cf 8e 39 3b 7e 25 39 8c d6 68 3a
       0.00024893598 0.0002723924 0.00015782651 0.00088820676
000020 c3 82 4e 3a 2c 56 84 3a fb bf 42 b9 ab 76 39 ba
       0.00078777614 0.0010096482 -0.000185728 -0.0007074873
000030 b9 f8 98 b9 6a 32 8a ba 91 6a 80 39 3a b9 1f b8
       -0.00029177012 -0.0010543589 0.0002449346 -3.808106e-05
000040 9c e7 0f ba 0d e7 bb 39 a3 ec 18 ba 9d 9f 2c 3a
       -0.00054895296 0.00035839566 -0.00058336015 0.00065850635
000050 12 20 07 3a 24 51 0a 3a cd 1d de 38 dd fd 1d 3a
       0.000515462 0.0005276373 0.00010591336 0.0006026903
000060 ed c4 87 b9 9d 04 1c 3a 5e 85 6e 38 9e 3c 4f ba
       -0.00025895928 0.0005951615 5.686783e-05 -0.0007905456
000070 1f a6 1d ba ab e9 19 3a e3 45 41 ba 09 42 38 3a
       -0.00060138287 0.0005871306 -0.00073727797 0.0007028883
000080 fd dc f5 39 9f 7a 0b b9 44 32 9a b9 61 ff df b9
       0.0004689469 -0.00013301753 -0.0002941062 -0.00042724147
000090 79 2b 03 3a f6 1d 68 ba 67 2f d9 b9 e7 8b 5a 3a
       0.00050037313 -0.0008854562 -0.00041424783 0.0008336887
0000a0 01 1e 40 3a 1a 3d 3a 3a d0 5a 7d b9 17 fe 86 39
       0.00073286897 0.0007104442 -0.0002416179 0.00025747783
0000b0 48 7f 15 ba 93 fc ab b8 6e 59 11 b9 1d ea 36 3a
       -0.00057028653 -8.200961e-05 -0.00013861593 0.00069776346
0000c0 0b 15 ab b9 4c 8f 4a b9 c6 57 41 39 35 3c d9 39
       -0.0003263134 -0.00019317603 0.00018438612 0.00041434323
0000d0 09 1a 7d 3a 20 34 4c ba c0 6b a6 b9 3f 4f f9 b9
       0.00096550636 -0.00077897497 -0.00031742267 -0.00047552024
0000e0 f7 62 31 3a d6 0f 46 3a 4e 0a 9b 37 d2 0e 2b ba
       0.0006766761 0.00075554603 1.8482238e-05 -0.0006525341
0000f0 08 51 0a ba 3b e1 28 ba 9e 41 04 3a d8 52 8f 37
       -0.0005276357 -0.00064422534 0.0005045178 1.7085506e-05
000100 1e 67 3c 3a de 04 61 3a 75 84 54 38 f1 bd fa 39
       0.00071869965 0.0008583794 5.06681e-05 0.00047825233
000110 89 3a 7b 3a d7 98 8e 3a 80 6a 0e 3a 30 aa b6 39
       0.00095836126 0.001087929 0.000543274 0.00034840545
000120 ae fd 2e ba 96 45 5e b9 50 c2 b6 39 fe 0c 96 b9
       -0.00066753745 -0.00021197493 0.0003485852 -0.0002861991
000130 33 14 03 3a 88 28 f1 b9 d1 fe 2a 3a d7 11 33 3a
       0.00050002633 -0.000459973 0.0006522956 0.00068309664
